pytorch_models/5M.0/TD3_MetaDrive-100envs-v0_0_actor.pth (torch, 582111 bytes, 6 tensors)

layer_1.weight f4 [400, 59]
00000000: a919 fe3c e357 d3bd 5311 21bd 94a4 1cbd
00000010: 52db 0abe d29f 0fbe 4be0 b7bd 5368 ea3d
00000020: 62c9 b63d 2357 81bd bbbd 83bc 5671 7b3e
00000030: 011f ecbd e508 fb3c 6352 8b3d 7cf1 08be
00000040: 3dfd efbd ff87 67bd e9c7 f9bd 9025 b5bd
00000050: 6ba9 d7bd 113b 09be a1a4 a8bc 54df 2fbe
00000060: 283e 65bd 12b5 20bd 2b15 513c c316 14be
00000070: fe7c 87bd d881 673d 7c38 fd3c e703 30be
00000080: d491 33be ee24 86bb 9ac4 a9bd 102c 96bd
00000090: 6027 65bd e318 a63d 406f 563d b9b1 393d
000000a0: f63d b9bd 00ad 67bc e100 ccbd a967 903d
000000b0: f2d0 d73c d7cb 143c 7f7e d0bc 5ecd 613c
000000c0: fa58 2bbd 61c7 e8bd 5d41 883d 7386 2f3d
000000d0: 188f c03d 13b1 a53d fd19 00be f32f 1dbd
000000e0: e9cc 00be d5ec e1bc d821 3e3d 66b4 a43d
000000f0: c7ba 413d 6557 a1bd b82a 18bd 2478 923d
00000100: 60ea 0fbe b358 733b 9b6a 3bbc c7a4 363d
00000110: d27b a03d ebf5 963d 065c 6f3d 2336 a9bd
00000120: 298d f4bd e707 60bd 19b2 c13d ce52 81bd
00000130: 35c6 bbbd 752c b13d d4a5 94bd d418 d4bd
00000140: 410d b83d 02ae 773d 0a12 c1bd dd83 043d
00000150: 78ef 15be 817e c7bd b3e1 12be 7c3b 853d
00000160: 4ec0 7d3d 64f3 8c3d 1bb5 983d e2b2 36bd
00000170: 4862 0cbe 15cb 14be d627 dabd 5df9 493c
00000180: abfe 0abd 4200 57bd c40a 7f3b 7e38 c9bd
00000190: b544 963d 4e36 93bd e49f 813d f7b8 c6bc
000001a0: aa1a 08be 117f 953d 761b f63c a478 36bd
000001b0: a5c8 bc3d 33bb dcbd de20 dbbd d97c eebd
000001c0: 91be 14be 5766 a0bd a3e1 933d 0313 583c
000001d0: 7341 95bd 9fce 343d 9251 f2bd 6d48 d8bd
000001e0: 0889 d93d f44e c83c 8559 743d 55ba 743d
000001f0: 5beb 7b3d a834 d93d ab84 893d 9af2 e0bd
00000200: 013c 1c3c b8f1 31bd c7e0 943d 0d1c 71bd
00000210: 8dd0 83bd 1011 b63b 79c6 0cbe c4ca 473c
00000220: 77a4 8d3d d976 873d 3404 ea3c d308 90bd
00000230: 3f44 4dbd ed23 c63c 27a0 aa3c 047b 263d
00000240: 0dbf 0e3b 0f76 8a3d 9821 9b3c 1813 dfbd
00000250: cc53 bfbd c2cb 83bc 43b8 59bd 9cac cd3d
00000260: 6671 1f3c 464a 9bbd 9422 e1bd 7271 c83c
00000270: 35a4 483b 9020 0e3d ee41 5b3c aa9f 153d
00000280: e7ec 09be 61ae 3abd 129f 29bd e296 f8bc
00000290: ad76 44bc 665f 833d 4f26 f8bd 0853 8cbd
000002a0: cdba d53d 31e5 c5bd 6c1e 763d dfbb 1bbe
000002b0: 137a 2bbc 97b5 e53c c3ce 7dbd 042a 823d
000002c0: 482c d0bd 40ab 7c3d e628 473d fe3f 303d
000002d0: c038 7d3d 96bf c5bd 1938 8bbd 502f b13d
000002e0: d941 97b9 e35f 7c3d 35c7 37bd 93b4 b7bd
000002f0: 57e3 17be d7ad c43d c955 76bd c5a2 fabd
00000300: a0f5 cbbd 5076 64bc a18c d63d 027b 91bd
00000310: 351f 62bd 95e7 cebd 0ba8 cabc 2a18 1abe
00000320: da43 e9bd 0db1 d4bb 89b1 ef3c 84bf 49bd
00000330: 028b aa3d cca5 b9bb b0e1 a2bd 1cd1 d3bc
00000340: dc20 16be 837c 4fbd 70b2 a1bc 6dc1 8dbc
00000350: f406 94bd 0fe2 51bd ff6a 4bbd 22ce 543d
00000360: a968 b4bd fccb 483d c69f 08be 9372 d23d
00000370: 8dd0 4abd bf87 843d 74fb b0bd 39bb 2cba
00000380: 949d 10bd 1262 743d b07c 883d 1dbb 8e3c
00000390: c1a2 8d3d c73f 403d 147c c03d 12fe 0dbe
000003a0: be29 1cbe 6d7d aa3d 2196 5dbd 09ad cf3c
000003b0: b0eb b0bc 7680 963d 5c1c 033e b4e6 bc3d
000003c0: 2296 e8bd 67c8 9abd 8801 f9bc 994f c9bd
000003d0: cc5c 7f3d d6e2 d93d 8012 69bc b029 073c
000003e0: 6cf3 c2bd 6862 653d f03f 983d fc66 d53d
000003f0: 00ae b339 2646 e43d 20a2 fdbc eef5 ccbd
0.031018095 -0.103194974 -0.039323162 -0.03824289 -0.13560227 -0.1402581 -0.08978327 0.114456795
0.089251295 -0.06315448 -0.016081681 0.24554953 -0.11529351 0.03064389 0.068028234 -0.13373369
-0.11718223 -0.05652618 -0.12196333 -0.08845055 -0.10530361 -0.13401438 -0.020586314 -0.17175037
-0.05596748 -0.039235182 0.0127613945 -0.14461808 -0.06615637 0.056520313 0.030910723 -0.17188989
-0.17536098 -0.004093758 -0.08289452 -0.07332623 -0.055945754 0.081102155 0.05235219 0.045335505
-0.09045021 -0.0141403675 -0.09961105 0.070510216 0.02634475 0.009081802 -0.025450943 0.0137818735
-0.0418329 -0.113661535 0.06653092 0.04285283 0.09402293 0.08090415 -0.12509914 -0.038375806
-0.12578167 -0.02757875 0.046418995 0.08042221 0.047297265 -0.07877997 -0.037150115 0.07151821
-0.1405425 0.0037131726 -0.011438991 0.044590738 0.07836117 0.07371124 0.05843737 -0.08262279
-0.11940987 -0.054695036 0.094577976 -0.06314622 -0.09168664 0.08651058 -0.07258192 -0.10356298
0.08986903 0.06046868 -0.09427269 0.032352317 -0.14642131 -0.097409256 -0.1434391 0.06505486
0.061950974 0.068823606 0.07456418 -0.04460419 -0.13709366 -0.14530595 -0.10652129 0.012327519
-0.033934277 -0.05249048 0.003891633 -0.09825228 0.073373236 -0.07188092 0.06329325 -0.02425812
-0.13291422 0.072996266 0.030042391 -0.044548646 0.092179574 -0.10777893 -0.10699628 -0.116449066
-0.1452582 -0.0783202 0.07220771 0.0131881265 -0.07287874 0.04414236 -0.118319646 -0.10560689
0.1062184 0.02445171 0.059655685 0.059748013 0.06150375 0.106057465 0.067147575 -0.109837726
0.00953579 -0.04344341 0.072694354 -0.058864642 -0.06436262 0.005556233 -0.13747586 0.012194339
0.06916135 0.06614465 0.028566457 -0.07032933 -0.050113913 0.024187053 0.02082832 0.04064466
0.0021781356 0.06760799 0.018936917 -0.10892314 -0.09342155 -0.01608837 -0.05315424 0.10042688
0.009731626 -0.07582526 -0.109929234 0.024468157 0.0030615453 0.034699023 0.013382418 0.03652922
-0.13469277 -0.045576457 -0.041411467 -0.030345384 -0.011991185 0.0641468 -0.12116682 -0.068517745
0.1043602 -0.096628554 0.060087606 -0.15208386 -0.0104661165 0.02804069 -0.06196476 0.0635567
-0.10164696 0.061686754 0.04862299 0.043029778 0.0618217 -0.09655683 -0.06797809 0.08651602
-0.00028850025 0.061614882 -0.044867713 -0.08969989 -0.14832817 0.0960347 -0.060140405 -0.12238077
-0.099589586 -0.0139442235 0.104760416 -0.0710354 -0.055205543 -0.101027645 -0.024738332 -0.1504828
-0.11389895 -0.0064908327 0.02925946 -0.04925491 0.08327295 -0.0056655165 -0.07953203 -0.025856547
-0.14660972 -0.050655853 -0.019738406 -0.017304147 -0.07227889 -0.051240977 -0.049662586 0.051954396
-0.08809025 0.04902266 -0.13342199 0.102757595 -0.049515296 0.06471204 -0.08641711 -0.00065891776
-0.03530653 0.05966384 0.06664407 0.017423207 0.069158085 0.046935823 0.09398666 -0.13866451
-0.15250298 0.08324704 -0.054098252 0.025351064 -0.02159676 0.07348721 0.12803787 0.09223691
-0.113567606 -0.07557755 -0.030396238 -0.09829635 0.062344357 0.10638969 -0.014225602 0.008249685
-0.09519085 0.05600205 0.0743407 0.10420033 0.0003427118 0.11146192 -0.030961096 -0.10007845

layer_1.bias f4 [400]
00000000: 0dd6 7fbd 0b11 60bd 01c7 c6bd 0db8 1c3d
00000010: 240d 663d 2680 dbbc 0633 f03c 3cd4 7bbd
00000020: 0098 a0bd 5129 17bc c431 8abd d279 05be
00000030: 788b f63c e02d 5c3d c144 c3bd 40bd afbd
00000040: ffa4 f43e 91c6 a6bb 00a6 32be 0d3b febd
00000050: 5ad6 bdbd 2711 433d 784e 19be 757f 58bd
00000060: 4384 d0bd 6776 1abe 7dde e9bd 3465 0e3d
00000070: 7843 e6bd ff30 dfbd e2a6 ebbd 510f 8c3d
00000080: d76a 4fbd dca3 bc3d 2d9a 7c3c 977e 283d
00000090: 9a6d e5bc ddb2 11be 4a1c 023e 039f 703d
000000a0: 4378 03bd 662d 1ebe fdf1 abbd 3524 be3d
000000b0: 0a08 c5bb d29c 28be 6874 65bc 0e3a 993c
000000c0: 9caf bbbd d829 c9bd 7129 e1bf 5b62 8538
000000d0: ed11 1cbe 246c fe3d 09a1 573c 6ff8 09bd
000000e0: 1aaf eabd c73f 31be cf61 a13b fb68 a2bd
000000f0: c914 a9bc 57bc 36be 73c7 8ebd 3d9d d7ba
00000100: 30de cfbd ba66 c7bd eda6 13be 39c9 d6bd
00000110: 0a05 01be 83fd 86bd 3ddf 01be 1205 8ebd
00000120: d8af 76bd 5b58 14bd 8a1f 77bc 14f1 a3bd
00000130: 70ef 6abd 1caa 253d 02c7 8fbd 308a cfbd
00000140: 06e0 29bd ac5d 613d 0402 f5bc e19d afbd
00000150: 3b43 b0bd b753 cd3d 5b2e 3d3d a849 70bc
00000160: d86f 853d a886 5d3f 676f c3bc da0a de3c
00000170: d88a 183d 9efb 94bd c787 683d 04e9 c33d
00000180: 50b1 c3bd 3d05 123d bd4e 88bd 1f2b b73d
00000190: 0618 84bd 043f cabd af51 0f3c 8494 353d
000001a0: 387e d3bc 75b2 d93c 82b3 2bbe 7c21 15be
000001b0: 7b81 04be 8033 1fbe c405 81bd a602 ff3c
000001c0: 3921 f0bd b1a2 14bc 3c6a cd3d 64de b63c
000001d0: d9d1 9ebd 690e 043d 3945 29bd e6e0 9e3d
000001e0: 3b66 f1bc f02a 543d 9365 513b 7df7 c3bd
000001f0: 81a9 32be 83e4 8c3d b619 9e3c 3d58 193d
00000200: 4335 7f3c 65c7 c4bd cc6f 573d 6583 02be
00000210: 2abd 83bc a331 5dbc f1ff efbd d9bd fbbd
00000220: 4a76 ca3c cd0f 763a 35d0 723c 64b7 01be
00000230: 4d37 55bd ef02 fbbd 9fd0 403f 81e2 a93d
00000240: 29b3 b5bd 557e bbbd 1598 8e3d 91ae 173d
00000250: ce10 45bd cf8b 9b3d 48b2 c53b f064 df3c
00000260: f525 84bc 03b3 743d e917 973c 5969 4dbd
00000270: 56ca 26bd c992 8cbd f305 66bc 1f36 1dbd
00000280: afd9 7dbb 33df 49bd 9d56 0fbd 3bb4 03bd
00000290: 87b4 89bd 4d04 00bd 6ccd d0bd 1528 7ebd
000002a0: 71cc eabd 544d 563d 64d2 9f3d faad d13d
000002b0: d5d2 fabd 2cf2 013e bc95 0dbe 2902 f4bc
000002c0: 7ffa d8bc f7b2 31be d176 00be aa6d babd
000002d0: e136 a2ba 9e87 be3c 8411 aabd 4360 323d
000002e0: a377 f9bd 3c31 3dbd 821d 80bc 77c8 043d
000002f0: 8935 213d c1e2 2d3d f935 03be e664 c23d
00000300: 69aa 25bd fc93 15bd 7487 8f3d 6090 40bd
00000310: 1fa8 d23d de44 f9bd 7cc2 01be 15be 51bd
00000320: 4ca5 bf3f 352b 913d 0981 f2bd 94f0 d9bd
00000330: ac68 b2bd 8cae 02be 360d a5bd fff0 c1bd
00000340: e502 9e3d 5166 6f3d 1ea0 87bd 3f13 363d
00000350: 393a 40bd a6f0 3fbd 2c70 c7bd 4c18 42bc
00000360: 8f11 803d aa6d 2740 1eb8 e7bd eefb 17bb
00000370: ce8e c8bd 32d5 eebd af69 5e3c 1808 483d
00000380: 64f4 df3d cc68 e1bd f0aa 0fbe 9bcd 4f3d
00000390: 0f94 b93d e361 0c3d ee97 c23c 7b0c 16bc
000003a0: 593b 413d 3c54 2cbc b241 9c3c b6db dfbd
000003b0: 16d2 d2bd e651 0a3d 7c35 34bd 36c9 9fbd
000003c0: a635 babc a761 fcbd 9fab 7dbf f27d 543d
000003d0: 8488 54bd 088f 3f3b 658e 1b3c acba 4a3d
000003e0: 973a a5bd a7b5 b8bd a40f e8bd f3ba 443d
000003f0: dbfe 8cbc 3426 ce3f 8869 35bc ef3d 34bd
-0.062459994 -0.054703753 -0.09705926 0.038261462 0.056164876 -0.026794504 0.029321205 -0.0614817
-0.07841492 -0.009226159 -0.06747773 -0.13034752 0.0300958 0.053754687 -0.09534598 -0.085810184
0.47782132 -0.005089589 -0.17446136 -0.12413607 -0.092694 0.04762378 -0.1497134 -0.052855927
-0.10181477 -0.1508423 -0.114193894 0.034764484 -0.112433374 -0.10898017 -0.1150644 0.06838859
-0.050639 0.09210941 0.015417618 0.04113635 -0.028006364 -0.14228387 0.12706104 0.058745395
-0.032097112 -0.15447006 -0.08395765 0.0928425 -0.006012921 -0.16466072 -0.014004804 0.01870444
-0.09164354 -0.09822434 -1.7590772 6.360254e-05 -0.15241213 0.1242297 0.013160952 -0.03368419
-0.11459179 -0.17309485 0.00492499 -0.0793018 -0.020639794 -0.17845283 -0.06971636 -0.0016450059
-0.10149801 -0.097363904 -0.14419146 -0.10487599 -0.12599578 -0.06591322 -0.12682815 -0.06934561
-0.06022629 -0.036217075 -0.015083203 -0.080049664 -0.05735725 0.040445432 -0.070203796 -0.10133779
-0.04147341 0.055020973 -0.029908188 -0.08575035 -0.08606573 0.10025733 0.046186786 -0.0146659985
0.06515473 0.86533594 -0.023856832 0.027104784 0.037241787 -0.07274555 0.056770112 0.095659286
-0.09555304 0.035649527 -0.06655643 0.089437716 -0.064498946 -0.098753005 0.008747502 0.04433109
-0.025817022 0.026574353 -0.16767696 -0.14563555 -0.12940018 -0.1554699 -0.06299928 0.031129193
-0.11725087 -0.009071992 0.10030028 0.022322841 -0.07754869 0.032240305 -0.04132578 0.0775774
-0.029467693 0.05179876 0.0031951412 -0.09568689 -0.17447473 0.06879523 0.01929937 0.037437666
0.015576663 -0.09608344 0.052596852 -0.12745436 -0.016081411 -0.013500604 -0.11718739 -0.1229207
0.024714608 0.000938651 0.014820148 -0.12667614 -0.052054692 -0.12256419 0.7531833 0.08295155
-0.08872063 -0.09154955 0.06962601 0.037031714 -0.04811173 0.07595026 0.0060332157 0.02726981
-0.01613138 0.05974103 0.018444018 -0.050149295 -0.040720306 -0.068639345 -0.014039504 -0.038381692
-0.0038734486 -0.049285125 -0.03499471 -0.032154303 -0.06723886 -0.0312541 -0.10195431 -0.062049944
-0.11464775 0.05231984 0.07803801 0.102382615 -0.12247244 0.12690037 -0.1382665 -0.029786186
-0.026486633 -0.17353426 -0.12545325 -0.09102948 -0.0012375974 0.023258027 -0.08304122 0.043548834
-0.12181022 -0.04618953 -0.01563907 0.03241774 0.039357696 0.042452578 -0.12813558 0.09491901
-0.04044572 -0.036518082 0.070082575 -0.047012687 0.10285973 -0.121713385 -0.12671846 -0.051206667
1.497232 0.07088319 -0.11841018 -0.1064159 -0.08711371 -0.12761897 -0.080591604 -0.094697945
0.07715396 0.058447186 -0.06622337 0.04445195 -0.046930525 -0.04686036 -0.09738192 -0.011846613
0.06253349 2.6160684 -0.113144144 -0.0023190933 -0.09792863 -0.116617575 0.013575002 0.048835844
0.10935286 -0.110063165 -0.14030051 0.05073319 0.09061443 0.03427304 0.023754086 -0.009158249
0.04717574 -0.01051813 0.019074295 -0.109305784 -0.10293977 0.03376951 -0.04399632 -0.0780205
-0.02273066 -0.12323313 -0.9909 0.051877923 -0.051888004 0.002922954 0.009494399 0.04949443
-0.08067816 -0.090190224 -0.11331108 0.04802985 -0.017211368 1.6105409 -0.011072524 -0.044004377

layer_2.weight f4 [300, 400]
00000000: 6eae b8bb 4b3e c03b ac5e 1bbc d423 00bc
00000010: f6c4 eb3c c88d d63c 270e a13c 98f7 85bb
00000020: 6b71 31bd e9db 09bc dd68 ce3c d58a b8bc
00000030: 6b0b 193d 46d9 83bc cb69 22bd 6675 0f3d
00000040: 45e3 41bd 753e a93c c2d7 bbbc c4a2 0cbd
00000050: 0414 033d ef9d 8a39 fd5c 593c 42cd 83bc
00000060: 5e43 94bc 6523 3bbd 01a8 81bc 045d 04bd
00000070: 5822 21bc 934f f3bc ad64 183c 3fe4 d93c
00000080: 8f00 78bb 8ac4 27bd f023 cbbb b6ce f93b
00000090: 0a39 af3c 2811 c2bb c559 81bd deaa a13b
000000a0: dccc 21bd 3b61 953c c4e5 7c3c df94 143c
000000b0: cd20 283d f0c0 f1bc 0e26 68bc 5e10 80bc
000000c0: abe0 77bb 586f 5fbc 1e03 16bd a805 d83b
000000d0: 09f0 58bc 71db 053d c5af e4bc 2cbf 963c
000000e0: dbec 22bd 6ce0 a23c 905d 83bc e8b0 583c
000000f0: 509b 67bd cdc9 11bd a230 aa3c f537 423d
00000100: 7f51 103d a7bc 3b3d c082 5ebc 0cf3 573c
00000110: ca94 bc3b 9688 66bd c5d9 03bd 8cf1 09bd
00000120: 80ec bc3d 1ea3 de3c cc26 19bc 1c91 f5bb
00000130: dcb7 193c f3fe bdbc 5d54 e3bc fbc0 2ebd
00000140: b60d 913c 6f8e 883c c919 303c 3862 853c
00000150: 9c50 953b 2c55 b4bc 2fc4 c4bc 7c5e a7bb
00000160: 2ca2 74bd 7d6e eabc d6c9 f1bc b209 e23c
00000170: a522 f7ba d1ed 33bc 3650 0abd 4a2b 21bd
00000180: c7a4 09bd 847d da3c c8bb a03c a2b1 9e3c
00000190: aa73 1fbd 3237 843c e23a 38bd dc7f 01bd
000001a0: 7c67 0b3d 96c1 853c 028b d13b 9247 5cb8
000001b0: 9299 d0bc 5095 303d 2593 4b3d 613d e53c
000001c0: 84e2 7ebc 155e f4bc 7086 193d c0da bf3b
000001d0: 9d08 58bc 07d1 093d 238b 57bd 87a9 55bc
000001e0: 314e ebbc 6ebc 92bc 6653 16bd d0ad f2bc
000001f0: e203 c1bc 9ff4 cebc e4ad febb 48be cb3c
00000200: 75ef 15bd cae3 503b ece8 463c ab48 18bd
00000210: 3bd4 e7bc 94d8 05bd b2a5 33bd 6f25 e9bc
00000220: 2101 2bbd 345b 503c d7bf 233c 649b 59bd
00000230: 481c b93c b23f 5a3b 3b19 15bd 6d77 a3bc
00000240: 28b8 06bd 40a9 503a a09f 1b3d 60c1 3fbd
00000250: 2994 23bd a9f2 44bd 4d23 223d 4e07 01bd
00000260: f467 5e3c 97b0 5bbd dff0 6b3c 587f e8bb
00000270: 1db3 0d3d 7df5 3bbd 3177 383c 75ca 78bd
00000280: db65 70bd eb1d 1ebd 6f05 6dbd c2e3 ddbc
00000290: 175e 69bd 5049 34bb 80e1 6bbc 9f26 35bc
000002a0: ca83 c53b 82e0 19bd 7966 61bc 581d 14bc
000002b0: 62d8 923c ba65 fdbc bc8d 24bd 6881 103d
000002c0: c0a3 36bc ea1a 9abd 07db 073d f03e 88bc
000002d0: 5daa 023c a6a0 393d 2f3b ddbc 6a50 4e3d
000002e0: da9d a3ba 7643 e33c 286c e43b d3fa 18bd
000002f0: 1de3 c4bc a46e 803c 8866 9f3a b7f1 d1bb
00000300: bcfa ebbd 20c0 1cbd fd43 e7bc b3ee 2bbd
00000310: 83b8 003d 72b3 dd3c 61b1 aa3c eb9f 683b
00000320: 390b 0bbd fe5f 6ebc 6357 22bd f04f 903a
00000330: 7419 42bd 80c4 733a 6b27 043d b251 2abd
00000340: 5338 2fbc 908c 8d3c 2e85 75bc fe96 05bc
00000350: a3b2 abbc 8e32 22bd 53f0 17bd f52f 1cbd
00000360: 62b1 bf3c 163f fabd b44d b63c 0f2f dcbb
00000370: 223f 043c 7a27 043d 7e93 4cbd 4153 3d3c
00000380: 901f 0c3d 1c5d 77bc b2ca a43c ec79 02bd
00000390: 08fb a03b e784 b8bb 797e efbc 8dcb a03c
000003a0: bd42 29bd cbf4 6bbd 698a 003d 4d9c d73b
000003b0: 851d 27bc 7f75 babc bdee 4fbd 628d 953c
000003c0: 7718 abbb 880b ef3c 922f f43b c245 8e3c
000003d0: b606 07bd f609 40bd 8854 29bd 9d9a c83c
000003e0: e8aa c1bc 3579 4c3d 743b 0c3d 754e de3c
000003f0: 4fb5 3a3d db99 6bbd 24cc 10bc 4d6d 49bc
-0.005636028 0.005866801 -0.009483021 -0.007821042 0.028780442 0.026190653 0.019660069 -0.0040883534
-0.043321054 -0.008414247 0.025196487 -0.022527138 0.037364405 -0.016094815 -0.039651673 0.03502407
-0.04733588 0.020659665 -0.02293003 -0.034334913 0.03200151 0.0002643908 0.013266799 -0.016089085
-0.01809853 -0.04568805 -0.01582718 -0.03231527 -0.009834848 -0.02970103 0.009301347 0.026598094
-0.003784213 -0.04095892 -0.0061993524 0.007623519 0.021389503 -0.0059224553 -0.0631595 0.004933699
-0.03950201 0.01823484 0.01543564 0.009068697 0.041046906 -0.029510945 -0.014169229 -0.015632804
-0.0037823122 -0.013637386 -0.036624067 0.006592471 -0.013240823 0.03267998 -0.027915845 0.018401705
-0.039776664 0.019882403 -0.016035825 0.0132257715 -0.056544602 -0.035592843 0.020775143 0.047416646
0.03523397 0.04583421 -0.013580978 0.0131805055 0.0057550417 -0.056282602 -0.032190103 -0.033677623
0.09224796 0.02717739 -0.009347629 -0.007494105 0.009382214 -0.023192858 -0.027750188 -0.04266451
0.017706733 0.01666948 0.010748335 0.016282186 0.0045567285 -0.02201327 -0.024019329 -0.005107699
-0.05972497 -0.028617138 -0.029515188 0.027592514 -0.0018854929 -0.010981993 -0.0337679 -0.039347924
-0.03360441 0.026671179 0.019620791 0.019371811 -0.038928665 0.0161396 -0.04497803 -0.031616077
0.034034237 0.01632766 0.006394745 -5.2518742e-05 -0.025463853 0.043111145 0.049700875 0.02798337
-0.015556935 -0.029830018 0.037481725 0.0058549345 -0.013185647 0.03364661 -0.052622925 -0.013040907
-0.028723808 -0.017912116 -0.03670063 -0.029623896 -0.023561422 -0.025263129 -0.007772194 0.024871007
-0.036605317 0.0031874054 0.012140494 -0.037178677 -0.028299442 -0.032677248 -0.04385919 -0.028460233
-0.041749123 0.012717057 0.009994469 -0.053126708 0.022596493 0.0033302126 -0.036401015 -0.019954408
-0.03289047 0.00079597905 0.037994027 -0.046815276 -0.03993622 -0.04808298 0.039584447 -0.031501107
0.013574589 -0.053635206 0.01440069 -0.0070952587 0.034594644 -0.045888413 0.011258886 -0.060739953
-0.058690887 -0.03860275 -0.05786651 -0.027086142 -0.056974497 -0.0027509518 -0.014397025 -0.011056571
0.0060276734 -0.037567623 -0.013757342 -0.009040199 0.017925445 -0.030932296 -0.04017423 0.03527966
-0.0111474395 -0.07524665 0.033167865 -0.016631573 0.007975188 0.045319222 -0.02700576 0.050369658
-0.0012482957 0.027742129 0.006970901 -0.03734858 -0.024034077 0.015677758 0.0012161294 -0.0064069885
-0.11522433 -0.038269162 -0.028230662 -0.04197569 0.031425964 0.027063105 0.020836534 0.003549571
-0.03394625 -0.0145492535 -0.03963412 0.0011010151 -0.047387555 0.0009298995 0.032264154 -0.041581817
-0.010694581 0.01727894 -0.014985366 -0.008153675 -0.020959204 -0.039598994 -0.037094425 -0.038131673
0.023400012 -0.12219064 0.022253849 -0.006719477 0.008071693 0.03226421 -0.049945347 0.011555494
0.034209788 -0.015097883 0.020116184 -0.031854555 0.0049127378 -0.0056310776 -0.029235112 0.01962831
-0.041323412 -0.0576065 0.031382 0.006579912 -0.010199909 -0.022761105 -0.050764788 0.018255893
-0.0052214223 0.029180303 0.00745196 0.017367247 -0.032965384 -0.0468845 -0.04134038 0.024487788
-0.023641065 0.04992028 0.034236386 0.02713702 0.045583066 -0.057519775 -0.008837733 -0.012294126

layer_2.bias f4 [300]
00000000: 95b5 16bd 892f d7bc 5d63 8a40 be6d 99bd
00000010: e948 b7bf f181 88bf 25cb e3be 06a5 38be
00000020: 82de 073e ad66 0ec0 d88a ddc0 3ec2 eabf
00000030: 59c4 24bf 237b d9bd b4ea 0abe f4b4 5ebe
00000040: 36c2 a03e 9ab7 44bf 3385 a6c0 b519 3ac0
00000050: 1e44 f3bf 1a22 5cbd c90b 343f e6ac 98bd
00000060: d86a 16be 682e 97c0 4c1f 4ebf 7962 afbd
00000070: 1c9b 7bbf fde7 8fbd bfbd 3ebe 59f5 e9bd
00000080: 7c85 16be 206a 1ec0 5e59 aebd 1da0 5bbd
00000090: 2d02 2cc0 f110 6f40 7d6a b3bd 404a 873e
000000a0: f0e9 33be b217 05c0 52a8 97bf aed7 cebd
000000b0: 5413 bfbd 57ab bebd aebb b8bd 1b87 39be
000000c0: cc25 b6bf 259c bfbd 4cf0 7abd 8f87 3c40
000000d0: 8e6e 763f ea0b a4bd 524c 7ebf b5c5 32be
000000e0: 1876 96bd 5623 89bd 0654 15c0 b0fb 3ac0
000000f0: da65 963f 2c01 05c0 89df 54c0 6691 7cbf
00000100: 7ff8 2140 2a66 3bbd aa4e f7bf c097 2dc0
00000110: 4dde 04c0 399c 34bf 3cee 3abd 8ab0 05be
00000120: 4924 4fbf cde5 9dbd 2dac 1dbf c671 cfbf
00000130: cbd4 91c0 103a a0c0 f32d a0bd 8e6b 7dbd
00000140: 004b 8ebf d455 9fbd e40d 67c0 db09 2ac0
00000150: 3e10 0dbe d5b4 62c0 3e49 143f 302a 17be
00000160: 0e5a c9bd 9f39 f1bd b494 40bf c503 f0bf
00000170: ed5d b6bd 2b88 10bd 07dd 8abf 7587 7bbd
00000180: 3c17 adbf 112e bfbd 78a9 5ec0 939b 9040
00000190: c7bb 71be 6fad 8dbd ac98 95bd 5595 54bf
000001a0: 7310 09c1 81d0 01c1 11d5 9bbd aabc 49bd
000001b0: 58ae d8bd bb93 cabd d002 16c0 5575 01be
000001c0: 8c21 6dbe 1c30 98bd c82a c040 c449 d3bd
000001d0: c28b 64bf 5d47 75bd ff51 96bd 35e4 5bbe
000001e0: 1b37 e4bf 7988 92c0 b054 cabd 0528 cabd
000001f0: 9c13 20be 8c09 f2bd ddbe dfbf 1f1c 98bd
00000200: 96a9 dbbd ad30 60bd 8c2c d7bf d96a 80bf
00000210: c045 d540 fc54 77bf ba66 1ebe 44a7 dfc0
00000220: 4cd1 c93e edec fbbf 3ea6 81c0 4def babf
00000230: 7e31 59c0 c90b a6c0 5a9a 01be 2f94 17bf
00000240: c44b 51c0 65cb 41bd 42eb bbbd 06e8 d8bf
00000250: daa9 9bbd d362 90be 6b46 81bc afb2 a3c0
00000260: f469 73bd 38d7 99bd 204f 6ebe dbbb acbd
00000270: 2820 3140 2a0d dfbd 9ea0 99bf b35c 06bd
00000280: a9be debd 7b43 93bd 508c 97bd 636d 04be
00000290: 25d3 943f e0c8 8abd 4297 8fbf 91e0 b8be
000002a0: 50e0 a6bf c2e1 febd 695d 47be 6c54 edbe
000002b0: b772 7d3f 07a4 f1c0 ee66 bcbd c746 5bbe
000002c0: 0691 b8c0 5d73 33bd a478 67be 267e 34c0
000002d0: 1c61 10bd 15ec 37bd cb5f bebd 1bf5 9cc0
000002e0: 3b0c adbc 30cb dbbd 03f4 6abf 0237 02bf
000002f0: 90b8 b9be 68ee dbbf 3cd0 82bd 2b19 5ebd
00000300: 6f56 8abd dd7a b8bd 186c 75c0 effe 87bd
00000310: fd2c 81bd 1f5b c3bd 3f35 71bd c1cd 62bf
00000320: ba5c 02be 1490 9abd 337c 8abd 7592 05be
00000330: b225 b5bd ec40 92bf 5894 48bd 84f1 d5bd
00000340: 99cf 07bd ae23 15be 5f04 85bd 919c debd
00000350: acaa 1f3e 1281 08be f31e 22bf d96e 80bf
00000360: 175a 33bd 6bc5 48bf 90cd 4f3f bb66 9ebe
00000370: e417 b8bd dc5c 65bd 4189 193f 75c1 8dc0
00000380: de21 4ebd 138b 84be 85d7 cabf cd54 4bbd
00000390: edfb 2ebf 2d02 b7bd 1e3a adc0 13f1 85bd
000003a0: 64be 91bd 798e 56c0 df0e 7abe b315 8ac0
000003b0: c9d2 07c0 6f27 7d3f 670f 36be 3bed bb40
000003c0: 37cb cc3e 3c35 aabd 080f 91bd 1891 13c0
000003d0: 392f 4bbd cbaa 6bbd 3fe9 cebd a557 0fc1
000003e0: 3018 bdbd 30d2 843f 5a29 28c0 5349 8f3e
000003f0: 14ef 88bd c326 70bc e329 1cbe c70e 9a40
-0.036794264 -0.026267784 4.3246293 -0.07491635 -1.4319125 -1.0664655 -0.44490924 -0.18031701
0.13268474 -2.2250168 -6.9231987 -1.8340528 -0.643621 -0.106191896 -0.13566095 -0.21748716
0.3139817 -0.76842654 -5.2037597 -2.907819 -1.9005163 -0.05374346 0.7033048 -0.07454853
-0.14689195 -4.724415 -0.80516505 -0.08563704 -0.98283553 -0.0702667 -0.1862707 -0.114237495
-0.14699358 -2.4752274 -0.08513139 -0.053619493 -2.6876328 3.735409 -0.087605454 0.26423836
-0.17569709 -2.0795712 -1.1848242 -0.100997314 -0.093298584 -0.09310024 -0.09020172 -0.18117945
-1.4230285 -0.09355954 -0.06126432 2.9457738 0.96262443 -0.08010085 -0.99335206 -0.17458232
-0.07346743 -0.06696193 -2.3332534 -2.9216118 1.1749833 -2.0781965 -3.3261435 -0.9865936
2.530792 -0.045751728 -1.9320881 -2.712387 -2.0760682 -0.70550877 -0.045637354 -0.13055626
-0.8091474 -0.07709847 -0.61590844 -1.6206596 -4.5572257 -5.0070877 -0.07821264 -0.06187015
-1.1116638 -0.07780042 -3.6102228 -2.6568515 -0.13775727 -3.542287 0.5792426 -0.14762187
-0.0983163 -0.117785685 -0.752269 -1.875115 -0.08904634 -0.03528611 -1.0848702 -0.06140848
-1.3522716 -0.09334958 -3.4790936 4.518991 -0.23606788 -0.069178455 -0.073045105 -0.8304036
-8.566516 -8.113404 -0.076089986 -0.04925219 -0.105801284 -0.098914586 -2.3439217 -0.12642415
-0.23157328 -0.07431051 6.0052223 -0.10316804 -0.89275753 -0.05988251 -0.07339858 -0.21473773
-1.7829317 -4.5791593 -0.09879434 -0.09870914 -0.1563248 -0.11818227 -1.7480122 -0.07427239
-0.10725705 -0.05473392 -1.681047 -1.0032607 6.6647644 -0.9661405 -0.15468875 -6.989168
0.39417493 -1.9681679 -4.051543 -1.4604279 -3.3936458 -5.1889386 -0.12656537 -0.59210485
-3.2702494 -0.047313113 -0.09175731 -1.6945808 -0.07600756 -0.28200397 -0.015780648 -5.115562
-0.059427217 -0.07511753 -0.23272371 -0.08434268 2.7675877 -0.10891183 -1.2002141 -0.03280325
-0.10876209 -0.07190605 -0.07399809 -0.12932353 1.1626936 -0.06776595 -1.1218035 -0.3610883
-1.3037205 -0.12445404 -0.19469227 -0.4635347 0.99003166 -7.551273 -0.0919932 -0.21413718
-5.767703 -0.04381119 -0.22604614 -2.8201995 -0.03524886 -0.04490288 -0.09295615 -4.90492
-0.021123996 -0.10732114 -0.9177858 -0.50865185 -0.36273623 -1.7182131 -0.06387374 -0.05422322
-0.06754767 -0.09007809 -3.8347225 -0.066404216 -0.06307409 -0.09538864 -0.05888867 -0.88595206
-0.12730685 -0.07547012 -0.0676197 -0.1304415 -0.088450804 -1.1426063 -0.048969597 -0.10446456
-0.033156965 -0.14564392 -0.06494974 -0.108697064 0.1559245 -0.13330486 -0.63328475 -1.0033828
-0.04378709 -0.78426236 0.8117304 -0.30937752 -0.08988932 -0.05599676 0.5997506 -4.4298654
-0.050325267 -0.25887355 -1.5847021 -0.04964142 -0.6835316 -0.08935962 -5.4133444 -0.06540122
-0.07116392 -3.3524458 -0.24419735 -4.315149 -2.1222403 0.98888296 -0.17779313 5.872709
0.3999879 -0.08310935 -0.07082945 -2.3057308 -0.049605582 -0.057535928 -0.10103082 -8.958898
-0.09233129 1.0376644 -2.627524 0.2798563 -0.066862255 -0.014657679 -0.15250354 4.814304

layer_3.weight f4 [2, 300]
00000000: a244 8a3c b11e 013c 249f a2be aa78 94bb
00000010: e3ba 80c0 b821 a13e bfd1 22bd 0672 2bba
00000020: ab6d e5bc a029 343d a74b 16bd 4a42 2d3d
00000030: 0630 083e 1ef8 92bb d84d aebc 108a b83d
00000040: bea6 143c 3679 b0c0 68b3 cc3d d9b6 a03e
00000050: 2482 2dbc af2a 40bb 6cb2 8ebd 365f 92bc
00000060: 53f5 b73c df95 cebd 725b ccc0 09a6 d3bc
00000070: a61a 0cbf d4ce 88bc d17b 85bd b8ee 00bd
00000080: a617 92bc b20d 3dc0 cdd0 7f3d 27d3 3f3c
00000090: d538 babe e0ff cdbd 39e2 113d 8cb6 c03f
000000a0: 1284 343b dfbc 3bbe 7cad 07bc c400 a93a
000000b0: 056e 083c 35f0 803a 7d36 d43c 1d86 c4bb
000000c0: 4e6d 3140 2acc 70bb e448 89bc 6b7b dd3b
000000d0: f09a cfbd 960d 7c3c 7382 abc0 b3fe af3c
000000e0: d24a bdbc 9bfb 68bb 9a6b 953b 4650 17be
000000f0: f691 d63c 32e3 4740 799e de3d 287b 2c40
00000100: c4f2 393c 2afb 47bc 9d30 30c0 57b4 b33f
00000110: ad6f 17bd e9da 943d f9f8 483c b8ac 75bc
00000120: 53a3 3dbe 9721 f5ba 9fb4 f9bc 5b8e 2ec0
00000130: ffa3 e73e 6fd5 89bb df09 ccbb c4d2 31be
00000140: 6a10 3c40 6804 d33b 82bb bcbe 4a57 8e3d
00000150: 5884 8bbc 1915 c33e d4bb f4bd 5052 713a
00000160: 6685 e33c bd16 6e3c 124e a7bf 08d7 4bbe
00000170: 60e8 e9bc 14ae b8bc d481 4dbf d475 ccbb
00000180: 9551 ef3f de93 053c e5cb 683f 3511 ff3d
00000190: ac12 88bd 6897 d33c eb1f 313c 27e5 7cbe
000001a0: fbfd 86be 116d 3b3d d93c 84bc 4b59 1abb
000001b0: 5a85 e73c 2692 d73c 2607 8e3e 5f5e 343e
000001c0: 952f ec3c 72c9 febc 9465 7dbb 79f4 9fb9
000001d0: f83a 53c1 0a67 9d3c 4416 92bc c3aa 9abd
000001e0: 203f c340 4b94 04bd 97ca 50bc df49 a43c
000001f0: d07b 073c 4dd5 49bd 9116 5a3d cd7d 963d
00000200: 54f3 52bb 5815 2e3c dcd5 393e 38f7 dcc0
00000210: 79c6 203c 011c d23d 4a9a 19bc 8027 233e
00000220: 2f0a efb7 c3b5 44c0 30ff d03d 6952 12c0
00000230: 164b 0c3e 2fdc 7d3d fe7f 1cbd 8046 1f3f
00000240: c1d3 a6c0 12fe a4bc 275c b9bb aae1 55bd
00000250: 1823 b83c 4a7c 15bd 5ef2 15bd 6a3a e8bc
00000260: d09d d83f b4d3 d33c ddfb 04be 1bb2 063c
00000270: a023 09be 0756 023d 192e 3840 1bfe 12bd
00000280: 3934 1d3c 2edb 90bf 02ce b23a c366 563c
00000290: 35a0 733e 805f 4cbb fdc4 63bf 4015 8fbe
000002a0: 448e a440 94d2 cc3c e125 a0c0 8505 14be
000002b0: ef08 6dbc acf2 cc40 97ef 703b eb5b f33a
000002c0: 529b 983d de1f 6f3c 65bb 793d f824 76bd
000002d0: ef03 2f3c 21ec d33c 178b fe3c 777e 97bd
000002e0: 8aba e53b 8214 1c3c 1ac9 83bf 01f6 43bf
000002f0: ae6a 2fbe 6e66 01be e70b 93bd 0d02 adbc
00000300: b6b2 ecbc 9a8c cc38 b9db 873c 8301 a43c
00000310: de42 debb b80e 95bc c6b3 52bc 5573 90c0
00000320: 1ea9 1fbd f2cc 24bb c0d5 193c 8c4f 8c3c
00000330: be24 28bc 642f 9dc0 c138 373d debb f13c
00000340: fd5a 213c 4481 143c f0cd a2bb 1945 98bc
00000350: 4864 b13e 1cae c9bc d18b 02be c0f2 7d3f
00000360: 25a5 fcb9 d058 ebc0 6d60 c0be 4102 b63c
00000370: fdc7 8b3b fc1e 103d 324a 7fbd 33ed a5bc
00000380: cb82 5c3c c0d4 32bc dc10 9abe 283f 5bbc
00000390: bdbf 43c0 cfa3 bebc c146 5d3f 5bef 273d
000003a0: 71e0 773b 6305 b140 87fb 3a3d 0735 b33a
000003b0: 20a1 03bf 78b5 b73e e012 4dbc 3209 f33d
000003c0: e5d7 e1c0 873e 3cbb a832 14bc 1aee b13e
000003d0: b140 eabc 33fd 59bb 8991 f1bb 72c8 013e
000003e0: e45c ae3c 6754 6bbf ff66 dabc d621 403e
000003f0: e97a e4bb 600d d2bc 6026 8e3d 3f3f bd3d
0.01687843 0.007880853 -0.3176204 -0.004530986 -4.0228133 0.31471038 -0.03975081 -0.0006540123
-0.028006395 0.04398501 -0.03669324 0.042299546 0.1329957 -0.0044851443 -0.021277353 0.09010708
0.009072958 -5.5147963 0.099951565 0.31389502 -0.01059011 -0.0029322316 -0.06967625 -0.017867666
0.022455847 -0.100871794 -6.3861628 -0.025836008 -0.5472816 -0.016700186 -0.06517757 -0.03147766
-0.017833542 -2.953961 0.062454987 0.0117080575 -0.36371484 -0.1005857 0.035616133 1.5055709
0.002754454 -0.18333767 -0.008281108 0.0012893905 0.008327012 0.0009837212 0.025904888 -0.005997433
2.7722964 -0.0036742785 -0.01675839 0.0067590973 -0.10136974 0.0153840985 -5.359674 0.021483755
-0.023106966 -0.003555036 0.0045599462 -0.14776716 0.026192646 3.123242 0.1087007 2.6950169
0.011349384 -0.012205878 -2.7529671 1.403941 -0.036971737 0.07268316 0.012266391 -0.014994793
-0.18519334 -0.0018702027 -0.030481635 -2.7274387 0.45242307 -0.0042063515 -0.0062267627 -0.17365557
2.9385018 0.0064397343 -0.36861807 0.06950243 -0.01703088 0.38102034 -0.11949888 0.0009205686
0.02777357 0.014531788 -1.30707 -0.19906247 -0.028553188 -0.022543944 -0.80276227 -0.006239632
1.8696772 0.00815293 0.9093612 0.12454454 -0.066441864 0.025829032 0.0108108325 -0.2469679
-0.26365647 0.04575831 -0.016142296 -0.0023551758 0.02826183 0.026314806 0.2773983 0.17614125
0.028831283 -0.031101916 -0.0038665282 -0.0003050899 -13.201897 0.019214172 -0.017832883 -0.075521015
6.1014557 -0.032367986 -0.012743614 0.020054756 0.008269265 -0.049275685 0.053244177 0.07348213
-0.0032188492 0.010625206 0.18147987 -6.905178 0.009812945 0.102592476 -0.009375164 0.15933037
-2.8495762e-05 -3.0735939 0.10204923 -2.28628 0.13700518 0.06197756 -0.038208 0.6221695
-5.213349 -0.020140681 -0.0056567374 -0.052217163 0.022477672 -0.036495484 -0.036608092 -0.028348166
1.692316 0.025857784 -0.12986703 0.008221175 -0.13392496 0.031820323 2.8778136 -0.035886865
0.00959497 -1.1316888 0.0013641717 0.013086024 0.23791583 -0.0031184852 -0.88972455 -0.279459
5.1423664 0.025002755 -5.004624 -0.1445523 -0.014467462 6.404623 0.00367639 0.0018566822
0.074515 0.014595 0.06096973 -0.06009385 0.01068209 0.025869431 0.031072183 -0.07397168
0.0070107626 0.009526374 -1.0295746 -0.7654725 -0.17130539 -0.1263673 -0.071800046 -0.021119142
-0.02889381 9.753667e-05 0.016584264 0.020020252 -0.0067828735 -0.018195495 -0.012860244 -4.5140786
-0.038979642 -0.002514657 0.009389341 0.017127775 -0.010262666 -4.912035 0.04473186 0.029508527
0.009848353 0.009064022 -0.0049683973 -0.018587636 0.3464682 -0.024619155 -0.12748648 0.9919853
-0.00048188228 -7.3545914 -0.37573567 0.022217872 0.004265784 0.0351858 -0.062326618 -0.020254707
0.013458918 -0.010914981 -0.30090988 -0.013381757 -3.0585778 -0.02327147 0.86436087 0.04099975
0.0037822986 5.5319076 0.04565003 0.001367242 -0.5141773 0.35880637 -0.012516707 0.11866988
-7.0576043 -0.0028723793 -0.0090452805 0.3475197 -0.0285953 -0.003326249 -0.0073720855 0.1267412
0.021284528 -0.9192566 -0.02666044 0.18762907 -0.00697266 -0.025641143 0.06940913 0.09240579

layer_3.bias f4 [2]
00000000: 3f29 a33c 995d 3341
0.019917129 11.210351
