pytorch_models/25M.0/TD3_MetaDrive-100envs-v0_0_actor.pth (torch, 582111 bytes, 6 tensors)

layer_1.weight f4 [400, 59]
0.031018095 -0.103194974 -0.039323162 -0.03824289 -0.13560227 -0.1402581 -0.08978327 0.114456795
0.089251295 -0.06315448 -0.016081681 0.24554953 -0.11529351 0.03064389 0.068028234 -0.13373369
-0.11718223 -0.05652618 -0.12196333 -0.08845055 -0.10530361 -0.13401438 -0.020586314 -0.17175037
-0.05596748 -0.039235182 0.0127613945 -0.14461808 -0.06615637 0.056520313 0.030910723 -0.17188989
-0.17536098 -0.004093758 -0.08289452 -0.07332623 -0.055945754 0.081102155 0.05235219 0.045335505
-0.09045021 -0.0141403675 -0.09961105 0.070510216 0.02634475 0.009081802 -0.025450943 0.0137818735
-0.0418329 -0.113661535 0.06653092 0.04285283 0.09402293 0.08090415 -0.12509914 -0.038375806
-0.12578167 -0.02757875 0.046418995 0.08042221 0.047297265 -0.07877997 -0.037150115 0.07151821
-0.1405425 0.0037131726 -0.011438991 0.044590738 0.07836117 0.07371124 0.05843737 -0.08262279
-0.11940987 -0.054695036 0.094577976 -0.06314622 -0.09168664 0.08651058 -0.07258192 -0.10356298
0.08986903 0.06046868 -0.09427269 0.032352317 -0.14642131 -0.097409256 -0.1434391 0.06505486
0.061950974 0.068823606 0.07456418 -0.04460419 -0.13709366 -0.14530595 -0.10652129 0.012327519
-0.033934277 -0.05249048 0.003891633 -0.09825228 0.073373236 -0.07188092 0.06329325 -0.02425812
-0.13291422 0.072996266 0.030042391 -0.044548646 0.092179574 -0.10777893 -0.10699628 -0.116449066
-0.1452582 -0.0783202 0.07220771 0.0131881265 -0.07287874 0.04414236 -0.14213856 -0.1344968
0.0777238 -0.0012744056 0.031089222 0.029761147 0.03139357 0.07633338 0.037762575 -0.13892585
-0.01891008 -0.070360936 0.072694354 -0.08863766 -0.09435374 -0.023595095 -0.13747586 -0.016323093
0.040643964 0.036034495 -0.0015437411 -0.10043948 -0.08022408 -0.005923148 -0.009281879 0.01053447
-0.02793206 0.037497833 -0.011173281 -0.125844 -0.10952395 -0.031627916 -0.06835391 0.085360706
-0.02037857 -0.10593541 -0.1400394 -0.005642043 -0.027048651 0.0045888317 -0.016727777 0.019084204
-0.15212774 -0.06318666 -0.059399366 -0.048931014 -0.031421345 0.04358564 -0.13584383 -0.08187056
0.09034701 -0.111591995 0.0438049 -0.17017365 -0.03106242 0.006720632 -0.08361948 0.041381285
-0.12454352 0.061686754 0.04862299 0.043029778 0.0618217 -0.09655683 -0.06797809 0.08651602
-0.00028850025 0.061614882 -0.044867713 -0.08969989 -0.14832817 0.0960347 -0.060140405 -0.12238077
-0.099589586 -0.0139442235 0.104760416 -0.0710354 -0.055205543 -0.101027645 -0.024738332 -0.1504828
-0.11389895 -0.0064908327 0.02925946 -0.04925491 0.08327295 -0.0056655165 -0.07953203 -0.025856547
-0.14660972 -0.050655853 -0.019738406 -0.017304147 -0.07227889 -0.051240977 -0.049662586 0.051954396
-0.08809025 0.04902266 -0.13342199 0.102757595 -0.049515296 0.06471204 -0.08641711 -0.00065891776
-0.03530653 0.05966384 0.06664407 0.017423207 0.069158085 0.046935823 0.09398666 -0.13866451
-0.15250298 0.08324704 -0.054098252 0.025351064 -0.043092575 0.04624355 0.099617824 0.064415075
-0.14125773 -0.10510591 -0.059924584 -0.12307001 0.033594158 0.07804728 -0.042155392 -0.017113082
-0.09519085 0.026873546 0.04514755 0.07515719 0.0003427118 0.0838301 -0.05859294 -0.11698495
00000000: a919 fe3c e357 d3bd 5311 21bd 94a4 1cbd
00000010: 52db 0abe d29f 0fbe 4be0 b7bd 5368 ea3d
00000020: 62c9 b63d 2357 81bd bbbd 83bc 5671 7b3e
00000030: 011f ecbd e508 fb3c 6352 8b3d 7cf1 08be
00000040: 3dfd efbd ff87 67bd e9c7 f9bd 9025 b5bd
00000050: 6ba9 d7bd 113b 09be a1a4 a8bc 54df 2fbe
00000060: 283e 65bd 12b5 20bd 2b15 513c c316 14be
00000070: fe7c 87bd d881 673d 7c38 fd3c e703 30be
00000080: d491 33be ee24 86bb 9ac4 a9bd 102c 96bd
00000090: 6027 65bd e318 a63d 406f 563d b9b1 393d
000000a0: f63d b9bd 00ad 67bc e100 ccbd a967 903d
000000b0: f2d0 d73c d7cb 143c 7f7e d0bc 5ecd 613c
000000c0: fa58 2bbd 61c7 e8bd 5d41 883d 7386 2f3d
000000d0: 188f c03d 13b1 a53d fd19 00be f32f 1dbd
000000e0: e9cc 00be d5ec e1bc d821 3e3d 66b4 a43d
000000f0: c7ba 413d 6557 a1bd b82a 18bd 2478 923d
00000100: 60ea 0fbe b358 733b 9b6a 3bbc c7a4 363d
00000110: d27b a03d ebf5 963d 065c 6f3d 2336 a9bd
00000120: 298d f4bd e707 60bd 19b2 c13d ce52 81bd
00000130: 35c6 bbbd 752c b13d d4a5 94bd d418 d4bd
00000140: 410d b83d 02ae 773d 0a12 c1bd dd83 043d
00000150: 78ef 15be 817e c7bd b3e1 12be 7c3b 853d
00000160: 4ec0 7d3d 64f3 8c3d 1bb5 983d e2b2 36bd
00000170: 4862 0cbe 15cb 14be d627 dabd 5df9 493c
00000180: abfe 0abd 4200 57bd c40a 7f3b 7e38 c9bd
00000190: b544 963d 4e36 93bd e49f 813d f7b8 c6bc
000001a0: aa1a 08be 117f 953d 761b f63c a478 36bd
000001b0: a5c8 bc3d 33bb dcbd de20 dbbd d97c eebd
000001c0: 91be 14be 5766 a0bd a3e1 933d 0313 583c
000001d0: 7341 95bd 9fce 343d c58c 11be 87b9 09be
000001e0: a82d 9f3d f509 a7ba d3ae fe3c a6cd f33c
000001f0: 8b96 003d ad54 9c3d eeac 1a3d 9442 0ebe
00000200: 50e9 9abc 6519 90bd c7e0 943d a987 b5bd
00000210: 893c c1bd 804a c1bc 79c6 0cbe 02b8 85bc
00000220: 497a 263d e898 133d 5b57 caba 37b3 cdbd
00000230: 864c a4bd f716 c2bb 0613 18bc c598 2c3c
00000240: c7d1 e4bc 5497 193d 2310 37bc 40dd 00be
00000250: 184e e0bd 468c 01bd 23fd 8bbd 98d1 ae3d
00000260: f5f0 a6bc aaf4 d8bd 7d66 0fbe e3e0 b8bb
00000270: 2295 ddbc e95d 963b b108 89bc 7a56 9c3c
00000280: 60c7 1bbe 0268 81bd c04c 73bd e36b 48bd
00000290: abb3 00bd db86 323d a51a 0bbe c1ab a7bd
000002a0: da07 b93d 588a e4bd c46c 333d 0042 2ebe
000002b0: 9e76 febc bf38 dc3b b140 abbd 6c7f 293d
000002c0: ac10 ffbd 40ab 7c3d e628 473d fe3f 303d
000002d0: c038 7d3d 96bf c5bd 1938 8bbd 502f b13d
000002e0: d941 97b9 e35f 7c3d 35c7 37bd 93b4 b7bd
000002f0: 57e3 17be d7ad c43d c955 76bd c5a2 fabd
00000300: a0f5 cbbd 5076 64bc a18c d63d 027b 91bd
00000310: 351f 62bd 95e7 cebd 0ba8 cabc 2a18 1abe
00000320: da43 e9bd 0db1 d4bb 89b1 ef3c 84bf 49bd
00000330: 028b aa3d cca5 b9bb b0e1 a2bd 1cd1 d3bc
00000340: dc20 16be 837c 4fbd 70b2 a1bc 6dc1 8dbc
00000350: f406 94bd 0fe2 51bd ff6a 4bbd 22ce 543d
00000360: a968 b4bd fccb 483d c69f 08be 9372 d23d
00000370: 8dd0 4abd bf87 843d 74fb b0bd 39bb 2cba
00000380: 949d 10bd 1262 743d b07c 883d 1dbb 8e3c
00000390: c1a2 8d3d c73f 403d 147c c03d 12fe 0dbe
000003a0: be29 1cbe 6d7d aa3d 2196 5dbd 09ad cf3c
000003b0: d781 30bd e069 3d3d 6e04 cc3d 0dec 833d
000003c0: dea5 10be c441 d7bd 7b73 75bd 210c fcbd
000003d0: 079a 093d 41d7 9f3d 22ab 2cbd bc30 8cbc
000003e0: 6cf3 c2bd e925 dc3c a3ec 383d 03ec 993d
000003f0: 00ae b339 1eaf ab3d 27ff 6fbd ce95 efbd

layer_1.bias f4 [400]
-0.062459994 -0.054703753 -0.12716942 0.038261462 0.02663653 -0.026794504 0.029321205 -0.0614817
-0.07841492 -0.009226159 -0.06747773 -0.13034752 0.00013476504 0.053754687 -0.09534598 -0.085810184
0.5965219 -0.005089589 -0.17446136 -0.13889521 -0.092694 0.04762378 -0.1497134 -0.052855927
-0.10181477 -0.1508423 -0.114193894 0.034764484 -0.112433374 -0.10898017 -0.1150644 0.06838859
-0.050639 0.09210941 0.015417618 0.023821803 -0.028006364 -0.14228387 1.7781883 0.058745395
-0.032097112 -0.15447006 -0.08395765 0.061202064 -0.006012921 -0.16466072 -0.014004804 0.006372951
-0.09164354 -0.09822434 -2.398123 6.360254e-05 -0.15241213 0.1242297 0.013160952 -0.03368419
-0.12278193 -0.17309485 0.00492499 -0.0793018 -0.020639794 -0.17845283 -0.06971636 -0.0016450059
-0.10149801 -0.097363904 -0.14419146 -0.10487599 -0.1571073 -0.06591322 -0.12682815 -0.06934561
-0.06022629 -0.036217075 -0.015083203 -0.080049664 -0.05735725 0.040445432 -0.070203796 -0.10133779
-0.04147341 0.055020973 -0.029908188 -0.08575035 -0.08606573 0.10025733 0.046186786 -0.0146659985
0.06515473 1.3492118 -0.023856832 0.027104784 0.0075895344 -0.07274555 0.056770112 0.08474078
-0.09555304 0.022986956 -0.06655643 0.089437716 -0.064498946 -0.098753005 -0.0059948927 0.04433109
-0.025817022 0.026574353 -0.16767696 -0.14563555 -0.12940018 -0.1554699 -0.09427008 0.031129193
-0.11725087 -0.009071992 0.09413131 0.022322841 -0.07754869 0.032240305 -0.04132578 0.0775774
-0.029467693 0.05179876 0.0031951412 -0.09568689 -0.17447473 0.06879523 -0.012461067 0.037437666
0.015576663 -0.09608344 0.052596852 -0.12745436 -0.016081411 -0.016912619 -0.11718739 -0.1229207
0.024714608 0.000938651 0.014820148 -0.12667614 -0.08427371 -0.12256419 2.6605818 0.08295155
-0.08872063 -0.09154955 0.06962601 0.037031714 -0.04811173 0.07595026 0.0060332157 0.02726981
-0.01613138 0.05974103 -0.0018220942 -0.050149295 -0.040720306 -0.068639345 -0.014039504 -0.038381692
-0.0038734486 -0.049285125 -0.03499471 -0.032154303 -0.06723886 -0.040125098 -0.10195431 -0.062049944
-0.11464775 0.0424096 0.07803801 0.102382615 -0.12247244 0.12690037 -0.1382665 -0.029786186
-0.026486633 -0.17353426 -0.12545325 -0.09102948 -0.0012375974 0.023258027 -0.08304122 0.043548834
-0.12181022 -0.04618953 -0.01563907 0.03241774 0.039357696 0.042452578 -0.12813558 0.09491901
-0.04044572 -0.036518082 0.070082575 -0.047012687 0.10285973 -0.15230143 -0.12671846 -0.051206667
1.3504506 0.07088319 -0.11841018 -0.1064159 -0.08711371 -0.12761897 -0.080591604 -0.10809751
0.07715396 0.058447186 -0.06622337 0.032358687 -0.046930525 -0.04686036 -0.10593782 -0.011846613
0.06253349 2.9721029 -0.113144144 -0.0023190933 -0.09792863 -0.116617575 0.013575002 0.048835844
0.111629926 -0.110063165 -0.14030051 0.042814553 0.09061443 0.03427304 0.023754086 -0.009158249
0.04717574 -0.02724909 0.019074295 -0.109305784 -0.1264411 0.03376951 -0.04399632 -0.0780205
-0.05195628 -0.12323313 -1.0198077 0.051877923 -0.055493888 0.002922954 0.009494399 0.019935286
-0.08067816 -0.090190224 -0.11331108 0.04802985 -0.017211368 0.6998985 -0.011072524 -0.044004377
00000000: 0dd6 7fbd 0b11 60bd b338 02be 0db8 1c3d
00000010: da34 da3c 2680 dbbc 0633 f03c 3cd4 7bbd
00000020: 0098 a0bd 5129 17bc c431 8abd d279 05be
00000030: b74f 0d39 e02d 5c3d c144 c3bd 40bd afbd
00000040: a9b5 183f 91c6 a6bb 00a6 32be 8c3a 0ebe
00000050: 5ad6 bdbd 2711 433d 784e 19be 757f 58bd
00000060: 4384 d0bd 6776 1abe 7dde e9bd 3465 0e3d
00000070: 7843 e6bd ff30 dfbd e2a6 ebbd 510f 8c3d
00000080: d76a 4fbd dca3 bc3d 2d9a 7c3c f125 c33c
00000090: 9a6d e5bc ddb2 11be ad9b e33f 039f 703d
000000a0: 4378 03bd 662d 1ebe fdf1 abbd 04af 7a3d
000000b0: 0a08 c5bb d29c 28be 6874 65bc 30d4 d03b
000000c0: 9caf bbbd d829 c9bd d97a 19c0 5b62 8538
000000d0: ed11 1cbe 246c fe3d 09a1 573c 6ff8 09bd
000000e0: 1875 fbbd c73f 31be cf61 a13b fb68 a2bd
000000f0: c914 a9bc 57bc 36be 73c7 8ebd 3d9d d7ba
00000100: 30de cfbd ba66 c7bd eda6 13be 39c9 d6bd
00000110: bce0 20be 83fd 86bd 3ddf 01be 1205 8ebd
00000120: d8af 76bd 5b58 14bd 8a1f 77bc 14f1 a3bd
00000130: 70ef 6abd 1caa 253d 02c7 8fbd 308a cfbd
00000140: 06e0 29bd ac5d 613d 0402 f5bc e19d afbd
00000150: 3b43 b0bd b753 cd3d 5b2e 3d3d a849 70bc
00000160: d86f 853d f9b2 ac3f 676f c3bc da0a de3c
00000170: a1b1 f83b 9efb 94bd c787 683d 938c ad3d
00000180: 50b1 c3bd 244f bc3c bd4e 88bd 1f2b b73d
00000190: 0618 84bd 043f cabd ce70 c4bb 8494 353d
000001a0: 387e d3bc 75b2 d93c 82b3 2bbe 7c21 15be
000001b0: 7b81 04be 8033 1fbe ac10 c1bd a602 ff3c
000001c0: 3921 f0bd b1a2 14bc ebc7 c03d 64de b63c
000001d0: d9d1 9ebd 690e 043d 3945 29bd e6e0 9e3d
000001e0: 3b66 f1bc f02a 543d 9365 513b 7df7 c3bd
000001f0: 81a9 32be 83e4 8c3d 8129 4cbc 3d58 193d
00000200: 4335 7f3c 65c7 c4bd cc6f 573d 6583 02be
00000210: 2abd 83bc 558c 8abc f1ff efbd d9bd fbbd
00000220: 4a76 ca3c cd0f 763a 35d0 723c 64b7 01be
00000230: b297 acbd ef02 fbbd f946 2a40 81e2 a93d
00000240: 29b3 b5bd 557e bbbd 1598 8e3d 91ae 173d
00000250: ce10 45bd cf8b 9b3d 48b2 c53b f064 df3c
00000260: f525 84bc 03b3 743d 56d3 eeba 5969 4dbd
00000270: 56ca 26bd c992 8cbd f305 66bc 1f36 1dbd
00000280: afd9 7dbb 33df 49bd 9d56 0fbd 3bb4 03bd
00000290: 87b4 89bd 375a 24bd 6ccd d0bd 1528 7ebd
000002a0: 71cc eabd b0b5 2d3d 64d2 9f3d faad d13d
000002b0: d5d2 fabd 2cf2 013e bc95 0dbe 2902 f4bc
000002c0: 7ffa d8bc f7b2 31be d176 00be aa6d babd
000002d0: e136 a2ba 9e87 be3c 8411 aabd 4360 323d
000002e0: a377 f9bd 3c31 3dbd 821d 80bc 77c8 043d
000002f0: 8935 213d c1e2 2d3d f935 03be e664 c23d
00000300: 69aa 25bd fc93 15bd 7487 8f3d 6090 40bd
00000310: 1fa8 d23d e8f4 1bbe 7cc2 01be 15be 51bd
00000320: 91db ac3f 352b 913d 0981 f2bd 94f0 d9bd
00000330: ac68 b2bd 8cae 02be 360d a5bd 3a62 ddbd
00000340: e502 9e3d 5166 6f3d 1ea0 87bd 8b8a 043d
00000350: 393a 40bd a6f0 3fbd eef5 d8bd 4c18 42bc
00000360: 8f11 803d ef36 3e40 1eb8 e7bd eefb 17bb
00000370: ce8e c8bd 32d5 eebd af69 5e3c 1808 483d
00000380: 3b9e e43d cc68 e1bd f0aa 0fbe 505e 2f3d
00000390: 0f94 b93d e361 0c3d ee97 c23c 7b0c 16bc
000003a0: 593b 413d 7c39 dfbc b241 9c3c b6db dfbd
000003b0: c779 01be e651 0a3d 7c35 34bd 36c9 9fbd
000003c0: 1cd0 54bd a761 fcbd 0f89 82bf f27d 543d
000003d0: 8f4d 63bd 088f 3f3b 658e 1b3c 534f a33c
000003e0: 973a a5bd a7b5 b8bd a40f e8bd f3ba 443d
000003f0: dbfe 8cbc 8c2c 333f 8869 35bc ef3d 34bd

layer_2.weight f4 [300, 400]
-0.005636028 0.005866801 -0.009483021 -0.007821042 0.028780442 0.026190653 0.019660069 -0.0040883534
-0.043321054 -0.008414247 0.025196487 -0.022527138 0.037364405 -0.016094815 -0.039651673 0.03502407
-0.04733588 0.020659665 -0.02293003 -0.034334913 0.03200151 0.0002643908 0.013266799 -0.016089085
-0.01809853 -0.04568805 -0.01582718 -0.03231527 -0.009834848 -0.02970103 0.009301347 0.026598094
-0.003784213 -0.04095892 -0.0061993524 0.007623519 0.021389503 -0.0059224553 -0.0631595 0.004933699
-0.03950201 0.01823484 0.01543564 0.009068697 0.041046906 -0.029510945 -0.014169229 -0.015632804
-0.0037823122 -0.013637386 -0.036624067 0.006592471 -0.013240823 0.03267998 -0.027915845 0.018401705
-0.039776664 0.019882403 -0.016035825 0.0132257715 -0.056544602 -0.035592843 0.020775143 0.047416646
0.03523397 0.04583421 -0.013580978 0.0131805055 0.0057550417 -0.056282602 -0.032190103 -0.033677623
0.09224796 0.02717739 -0.009347629 -0.007494105 0.009382214 -0.023192858 -0.027750188 -0.04266451
0.017706733 0.01666948 0.010748335 0.016282186 0.0045567285 -0.02201327 -0.024019329 -0.005107699
-0.05972497 -0.028617138 -0.029515188 0.027592514 -0.0018854929 -0.010981993 -0.0337679 -0.039347924
-0.03360441 0.026671179 0.019620791 0.019371811 -0.038928665 0.0161396 -0.04497803 -0.031616077
0.034034237 0.01632766 0.006394745 -5.2518742e-05 -0.025463853 0.043111145 0.049700875 0.02798337
-0.015556935 -0.029830018 0.037481725 0.0058549345 -0.013185647 0.03364661 -0.052622925 -0.013040907
-0.028723808 -0.017912116 -0.03670063 -0.029623896 -0.023561422 -0.025263129 -0.007772194 0.024871007
-0.036605317 0.0031874054 0.012140494 -0.037178677 -0.028299442 -0.032677248 -0.04385919 -0.028460233
-0.041749123 0.012717057 0.009994469 -0.053126708 0.022596493 0.0033302126 -0.036401015 -0.019954408
-0.03289047 0.00079597905 0.037994027 -0.046815276 -0.03993622 -0.04808298 0.039584447 -0.031501107
0.013574589 -0.053635206 0.01440069 -0.0070952587 0.034594644 -0.045888413 0.011258886 -0.060739953
-0.058690887 -0.03860275 -0.05786651 -0.027086142 -0.056974497 -0.0027509518 -0.014397025 -0.011056571
0.0060276734 -0.037567623 -0.013757342 -0.009040199 0.017925445 -0.030932296 -0.04017423 0.03527966
-0.0111474395 -0.07524665 0.033167865 -0.016631573 0.007975188 0.045319222 -0.02700576 0.050369658
-0.0012482957 0.027742129 0.006970901 -0.03734858 -0.024034077 0.015677758 0.0012161294 -0.0064069885
-0.11522433 -0.038269162 -0.028230662 -0.04197569 0.031425964 0.027063105 0.020836534 0.003549571
-0.03394625 -0.0145492535 -0.03963412 0.0011010151 -0.047387555 0.0009298995 0.032264154 -0.041581817
-0.010694581 0.01727894 -0.014985366 -0.008153675 -0.020959204 -0.039598994 -0.037094425 -0.038131673
0.023400012 -0.12219064 0.022253849 -0.006719477 0.008071693 0.03226421 -0.049945347 0.011555494
0.034209788 -0.015097883 0.020116184 -0.031854555 0.0049127378 -0.0056310776 -0.029235112 0.01962831
-0.041323412 -0.0576065 0.031382 0.006579912 -0.010199909 -0.022761105 -0.050764788 0.018255893
-0.0052214223 0.029180303 0.00745196 0.017367247 -0.032965384 -0.0468845 -0.04134038 0.024487788
-0.023641065 0.04992028 0.034236386 0.02713702 0.045583066 -0.057519775 -0.008837733 -0.012294126
00000000: 6eae b8bb 4b3e c03b ac5e 1bbc d423 00bc
00000010: f6c4 eb3c c88d d63c 270e a13c 98f7 85bb
00000020: 6b71 31bd e9db 09bc dd68 ce3c d58a b8bc
00000030: 6b0b 193d 46d9 83bc cb69 22bd 6675 0f3d
00000040: 45e3 41bd 753e a93c c2d7 bbbc c4a2 0cbd
00000050: 0414 033d ef9d 8a39 fd5c 593c 42cd 83bc
00000060: 5e43 94bc 6523 3bbd 01a8 81bc 045d 04bd
00000070: 5822 21bc 934f f3bc ad64 183c 3fe4 d93c
00000080: 8f00 78bb 8ac4 27bd f023 cbbb b6ce f93b
00000090: 0a39 af3c 2811 c2bb c559 81bd deaa a13b
000000a0: dccc 21bd 3b61 953c c4e5 7c3c df94 143c
000000b0: cd20 283d f0c0 f1bc 0e26 68bc 5e10 80bc
000000c0: abe0 77bb 586f 5fbc 1e03 16bd a805 d83b
000000d0: 09f0 58bc 71db 053d c5af e4bc 2cbf 963c
000000e0: dbec 22bd 6ce0 a23c 905d 83bc e8b0 583c
000000f0: 509b 67bd cdc9 11bd a230 aa3c f537 423d
00000100: 7f51 103d a7bc 3b3d c082 5ebc 0cf3 573c
00000110: ca94 bc3b 9688 66bd c5d9 03bd 8cf1 09bd
00000120: 80ec bc3d 1ea3 de3c cc26 19bc 1c91 f5bb
00000130: dcb7 193c f3fe bdbc 5d54 e3bc fbc0 2ebd
00000140: b60d 913c 6f8e 883c c919 303c 3862 853c
00000150: 9c50 953b 2c55 b4bc 2fc4 c4bc 7c5e a7bb
00000160: 2ca2 74bd 7d6e eabc d6c9 f1bc b209 e23c
00000170: a522 f7ba d1ed 33bc 3650 0abd 4a2b 21bd
00000180: c7a4 09bd 847d da3c c8bb a03c a2b1 9e3c
00000190: aa73 1fbd 3237 843c e23a 38bd dc7f 01bd
000001a0: 7c67 0b3d 96c1 853c 028b d13b 9247 5cb8
000001b0: 9299 d0bc 5095 303d 2593 4b3d 613d e53c
000001c0: 84e2 7ebc 155e f4bc 7086 193d c0da bf3b
000001d0: 9d08 58bc 07d1 093d 238b 57bd 87a9 55bc
000001e0: 314e ebbc 6ebc 92bc 6653 16bd d0ad f2bc
000001f0: e203 c1bc 9ff4 cebc e4ad febb 48be cb3c
00000200: 75ef 15bd cae3 503b ece8 463c ab48 18bd
00000210: 3bd4 e7bc 94d8 05bd b2a5 33bd 6f25 e9bc
00000220: 2101 2bbd 345b 503c d7bf 233c 649b 59bd
00000230: 481c b93c b23f 5a3b 3b19 15bd 6d77 a3bc
00000240: 28b8 06bd 40a9 503a a09f 1b3d 60c1 3fbd
00000250: 2994 23bd a9f2 44bd 4d23 223d 4e07 01bd
00000260: f467 5e3c 97b0 5bbd dff0 6b3c 587f e8bb
00000270: 1db3 0d3d 7df5 3bbd 3177 383c 75ca 78bd
00000280: db65 70bd eb1d 1ebd 6f05 6dbd c2e3 ddbc
00000290: 175e 69bd 5049 34bb 80e1 6bbc 9f26 35bc
000002a0: ca83 c53b 82e0 19bd 7966 61bc 581d 14bc
000002b0: 62d8 923c ba65 fdbc bc8d 24bd 6881 103d
000002c0: c0a3 36bc ea1a 9abd 07db 073d f03e 88bc
000002d0: 5daa 023c a6a0 393d 2f3b ddbc 6a50 4e3d
000002e0: da9d a3ba 7643 e33c 286c e43b d3fa 18bd
000002f0: 1de3 c4bc a46e 803c 8866 9f3a b7f1 d1bb
00000300: bcfa ebbd 20c0 1cbd fd43 e7bc b3ee 2bbd
00000310: 83b8 003d 72b3 dd3c 61b1 aa3c eb9f 683b
00000320: 390b 0bbd fe5f 6ebc 6357 22bd f04f 903a
00000330: 7419 42bd 80c4 733a 6b27 043d b251 2abd
00000340: 5338 2fbc 908c 8d3c 2e85 75bc fe96 05bc
00000350: a3b2 abbc 8e32 22bd 53f0 17bd f52f 1cbd
00000360: 62b1 bf3c 163f fabd b44d b63c 0f2f dcbb
00000370: 223f 043c 7a27 043d 7e93 4cbd 4153 3d3c
00000380: 901f 0c3d 1c5d 77bc b2ca a43c ec79 02bd
00000390: 08fb a03b e784 b8bb 797e efbc 8dcb a03c
000003a0: bd42 29bd cbf4 6bbd 698a 003d 4d9c d73b
000003b0: 851d 27bc 7f75 babc bdee 4fbd 628d 953c
000003c0: 7718 abbb 880b ef3c 922f f43b c245 8e3c
000003d0: b606 07bd f609 40bd 8854 29bd 9d9a c83c
000003e0: e8aa c1bc 3579 4c3d 743b 0c3d 754e de3c
000003f0: 4fb5 3a3d db99 6bbd 24cc 10bc 4d6d 49bc

layer_2.bias f4 [300]
-0.036794264 -0.026267784 1.1178982 -0.09441988 -1.6164813 -1.1011537 -5.5688753 -0.18031701
-15.923686 -11.82182 -23.008623 1.9321259 7.851446 -0.106191896 -0.13566095 -16.850569
6.66494 -0.91912913 -23.291096 -7.722133 -7.7858768 -0.05374346 -1.5603006 -0.09313794
-0.14689195 -14.572898 -1.0663466 -0.08563704 -1.0326953 -0.0702667 -0.1862707 -0.114237495
-0.14699358 -2.3875365 -0.08513139 -0.053619493 9.828515 -11.68318 -0.118665755 3.3671372
-0.17569709 -11.349659 -1.919042 -0.100997314 -0.093298584 -0.09310024 -0.09020172 -0.18117945
-2.0503428 -0.09355954 -0.06126432 -2.1852548 -7.833834 -0.08010085 -1.1387141 -0.17458232
-0.07346743 -0.06696193 -6.443127 2.5210164 -0.36933059 -2.8541613 -5.080151 -0.92351395
-0.7080295 -0.045751728 -3.3771603 -3.5968804 -5.144374 -1.9404434 -0.045637354 -0.13055626
-0.8091474 -0.07709847 -0.61590844 -1.6937383 -10.132859 -5.745191 -0.07821264 0.90596014
-1.2014385 -0.07780042 -15.703075 -5.8910446 -0.13775727 -9.592111 -12.34884 -0.14762187
-0.0983163 -0.14982665 -0.8165404 -0.36268038 -0.08904634 -0.03528611 -1.0848702 -0.06140848
-1.3335013 -0.09334958 -7.8250117 -1.0700479 -0.23606788 -0.069178455 -0.073045105 1.8006395
-20.663778 -25.69426 -0.076089986 -0.04925219 -0.105801284 -0.12180232 -5.0002513 -0.12690468
-0.23157328 -0.07431051 5.201694 -0.10316804 -1.0531971 -0.05988251 -0.0794792 -0.21473773
-2.3047493 -8.459946 -0.09879434 -0.09870914 -0.1563248 -0.11818227 27.436745 -0.07427239
-0.10725705 -0.05473392 -19.570963 -1.6395693 3.25496 16.95905 -0.1554841 -1.0971264
1.1257967 -1.9681679 -8.814124 -1.9456611 -21.947634 -2.235558 -0.156163 -0.59210485
-3.5282772 -0.047313113 -0.09175731 -12.347066 -0.07600756 -0.28480464 -0.015780648 -3.0362933
-0.059427217 -0.10663809 -0.23272371 -0.08434268 8.9962225 -0.13431446 -1.1353359 -0.03280325
-0.10876209 -5.479295 -0.07399809 -0.12932353 9.516644 -0.06776595 -5.5747013 -0.39078766
-1.9058231 -0.12445404 -0.04336838 -9.864087 -3.8938642 -10.224521 -0.092468925 -0.21413718
-26.63338 -0.052070506 -0.22604614 -22.533201 -0.03524886 -0.04490288 -0.09295615 -19.367989
-0.021123996 -0.10732114 -10.178465 -0.505502 -0.36273623 -11.338535 -0.06387374 -0.05422322
-0.099187836 -0.09007809 -6.2669773 -0.066404216 -0.06307409 -0.09538864 -0.05888867 -1.0767189
-0.12730685 -0.07547012 -0.0676197 -0.1304415 -0.05493786 -1.2292442 -0.057606142 -0.10446456
-0.033156965 -0.14564392 -0.06494974 -0.108697064 -8.811129 -0.133415 -18.819372 1.7698652
-0.04378709 -0.9561176 3.7081618 -0.30937752 -0.08988932 -0.05599676 1.3694252 -12.7592745
-0.050325267 -0.25887355 -5.683404 -0.04964142 -0.68774647 -0.08935962 -14.250936 -0.06540122
-0.07116392 -11.583223 -0.24419735 -1.6981386 -15.29719 -8.041692 -0.17779313 4.3207808
0.47717595 -0.08310935 -0.07082945 -11.242987 -0.049605582 -0.057535928 -0.10103082 -21.1746
-0.09231914 -4.2194724 -3.930549 11.359615 -0.066862255 -0.014657679 -0.15250354 -2.6588366
00000000: 95b5 16bd 892f d7bc 4a17 8f3f 365f c1bd
00000010: dce8 cebf 9bf2 8cbf 3a34 b2c0 06a5 38be
00000020: 6bc7 7ec1 2d26 3dc1 a911 b8c1 e74f f73f
00000030: 0c3f fb40 237b d9bd b4ea 0abe f7cd 86c1
00000040: 3047 d540 0c4c 6bbf 2a54 bac1 b71b f7c0
00000050: e725 f9c0 1a22 5cbd eeb7 c7bf 1bbf bebd
00000060: d86a 16be 972a 69c1 0c7e 88bf 7962 afbd
00000070: 5c2f 84bf fde7 8fbd bfbd 3ebe 59f5 e9bd
00000080: 7c85 16be 66cd 18c0 5e59 aebd 1da0 5bbd
00000090: 9941 1d41 4eee 3ac1 0807 f3bd 2d7f 5740
000000a0: f0e9 33be 3498 35c1 2ba3 f5bf aed7 cebd
000000b0: 5413 bfbd 57ab bebd aebb b8bd 1b87 39be
000000c0: d138 03c0 259c bfbd 4cf0 7abd 37db 0bc0
000000d0: c5ae fac0 ea0b a4bd 62c1 91bf b5c5 32be
000000e0: 1876 96bd 5623 89bd 192e cec0 5558 2140
000000f0: e618 bdbe 94aa 36c0 9990 a2c0 696b 6cbf
00000100: 6c41 35bf 2a66 3bbd 6523 58c0 4a33 66c0
00000110: b69e a4c0 7360 f8bf 3cee 3abd 8ab0 05be
00000120: 4924 4fbf cde5 9dbd 2dac 1dbf 6bcc d8bf
00000130: 3120 22c1 9bd8 b7c0 f32d a0bd 01ed 673f
00000140: bdc8 99bf d455 9fbd cc3f 7bc1 7083 bcc0
00000150: 3e10 0dbe 4979 19c1 d994 45c1 302a 17be
00000160: 0e5a c9bd 286c 19be cb08 51bf 3eb1 b9be
00000170: ed5d b6bd 2b88 10bd 07dd 8abf 7587 7bbd
00000180: 2cb0 aabf 112e bfbd 7f66 fac0 54f7 88bf
00000190: c7bb 71be 6fad 8dbd ac98 95bd 5b7b e63f
000001a0: 6b4f a5c1 d88d cdc1 11d5 9bbd aabc 49bd
000001b0: 58ae d8bd 7f73 f9bd 0f02 a0c0 4df3 01be
000001c0: 8c21 6dbe 1c30 98bd 4774 a640 c449 d3bd
000001d0: 2acf 86bf 5d47 75bd fec5 a2bd 35e4 5bbe
000001e0: 0381 13c0 f05b 07c1 b054 cabd 0528 cabd
000001f0: 9c13 20be 8c09 f2bd 747e db41 1f1c 98bd
00000200: 96a9 dbbd ad30 60bd 5591 9cc1 68dd d1bf
00000210: 4451 5040 22ac 8741 3937 1fbe a36e 8cbf
00000220: 1b1a 903f edec fbbf a706 0dc1 6c0b f9bf
00000230: c194 afc1 6213 0fc0 32e9 1fbe 2f94 17bf
00000240: 4bcf 61c0 65cb 41bd 42eb bbbd 958d 45c1
00000250: daa9 9bbd ead1 91be 6b46 81bc a152 42c0
00000260: f469 73bd 1265 dabd 204f 6ebe dbbb acbd
00000270: 87f0 0f41 bb89 09be b052 91bf b35c 06bd
00000280: a9be debd 6256 afc0 508c 97bd 636d 04be
00000290: 2c44 1841 e0c8 8abd f463 b2c0 5215 c8be
000002a0: 03f2 f3bf c2e1 febd 0ba3 31bd 4dd3 1dc1
000002b0: 1235 79c0 a397 23c1 5960 bdbd c746 5bbe
000002c0: 2a11 d5c1 e247 55bd a478 67be ff43 b4c1
000002d0: 1c61 10bd 15ec 37bd cb5f bebd a4f1 9ac1
000002e0: 3b0c adbc 30cb dbbd feda 22c1 9468 01bf
000002f0: 90b8 b9be a46a 35c1 3cd0 82bd 2b19 5ebd
00000300: fe22 cbbd dd7a b8bd 148b c8c0 effe 87bd
00000310: fd2c 81bd 1f5b c3bd 3f35 71bd edd1 89bf
00000320: ba5c 02be 1490 9abd 337c 8abd 7592 05be
00000330: 8606 61bd e057 9dbf 6bf4 6bbd 84f1 d5bd
00000340: 99cf 07bd ae23 15be 5f04 85bd 919c debd
00000350: 62fa 0cc1 f19d 08be 138e 96c1 f18a e23f
00000360: 175a 33bd 1fc4 74bf 8652 6d40 bb66 9ebe
00000370: e417 b8bd dc5c 65bd 5349 af3f fd25 4cc1
00000380: de21 4ebd 138b 84be 72de b5c0 cd54 4bbd
00000390: 2710 30bf 2d02 b7bd d503 64c1 13f1 85bd
000003a0: 64be 91bd e254 39c1 df0e 7abe 9b5c d9bf
000003b0: 4ac1 74c1 c5aa 00c1 670f 36be d643 8a40
000003c0: 6850 f43e 3c35 aabd 080f 91bd 46e3 33c1
000003d0: 392f 4bbd cbaa 6bbd 3fe9 cebd 9565 a9c1
000003e0: d111 bdbd eb05 87c0 1d8e 7bc0 fcc0 3541
000003f0: 14ef 88bd c326 70bc e329 1cbe 612a 2ac0

layer_3.weight f4 [2, 300]
0.01687843 0.007880853 -0.20423682 -0.008873372 -3.6527634 0.28295442 -0.008082387 -0.0006540123
-0.5143345 -0.043453366 -0.013341754 0.00034401676 -0.027310599 -0.0044851443 -0.021277353 0.14488685
-0.021376638 -5.39287 0.10903603 -0.17574748 0.10676596 -0.0029322316 -0.009745643 0.0053185034
0.022455847 -0.026648581 -5.4152255 -0.025836008 -0.4638138 -0.016700186 -0.06517757 -0.03147766
-0.017833542 -3.028583 0.062454987 0.0117080575 -0.2521143 -0.048808135 0.0045846235 0.15569726
0.002754454 0.004914275 0.008259164 0.0012893905 0.008327012 0.0009837212 0.025904888 -0.005997433
3.4565175 -0.0036742785 -0.01675839 -0.0058193556 0.003898832 0.0153840985 -5.2198634 0.021483755
-0.023106966 -0.003555036 0.004505176 -0.22775102 0.092254855 3.6088006 2.9313965 2.6950169
0.005845918 -0.012205878 -0.18279278 0.77972436 -0.0061229393 -0.0018379594 0.012266391 -0.014994793
-0.18519334 -0.0018702027 -0.030481635 -2.684945 -0.10378755 0.030327402 -0.0062267627 0.009128027
2.8812962 0.0064397343 -0.3909408 0.08257464 -0.01703088 0.42958024 -0.022719124 0.0009205686
0.02777357 0.020090528 -1.2887075 17.197153 -0.028553188 -0.022543944 -0.80276227 -0.006239632
1.1317424 0.00815293 0.13200007 0.057085328 -0.066441864 0.025829032 0.0108108325 -0.01287416
-9.651978 -0.00017970639 -0.016142296 -0.0023551758 0.02826183 -0.0006354397 0.14505309 0.17609406
0.028831283 -0.031101916 -0.0004442846 -0.0003050899 -13.107044 0.019214172 0.031719353 -0.075521015
2.5356288 0.053596668 -0.012743614 0.020054756 0.008269265 -0.049275685 0.082226686 0.07348213
-0.0032188492 0.010625206 0.012979247 -6.408553 -0.020700848 0.44314158 0.00456181 0.14155608
-0.02394249 -3.0735939 0.26270235 -0.22161084 0.11371626 -0.7676745 -0.0073738354 0.6221695
-5.0744333 -0.020140681 -0.0056567374 0.004345881 0.022477672 -0.031652823 -0.036608092 -0.278954
1.692316 -0.0049109776 -0.12986703 0.008221175 -0.040370386 0.031820323 2.8778136 -0.035886865
0.00959497 0.19162402 0.0013641717 0.013086024 -0.0052053034 -0.0031184852 -3.0853446 -0.2548639
3.715529 0.025002755 -2.5021427 -0.13614874 -0.0064128474 -0.15705048 0.0015948483 0.0018566822
0.12723461 -0.0060789078 0.06096973 -3.2155383 0.01068209 0.025869431 0.031072183 -0.049783505
0.0070107626 0.009526374 -1.4493515 -0.7748125 -0.17130539 -0.005046862 -0.071800046 -0.021119142
0.0027465306 9.753667e-05 0.4631689 0.020020252 -0.0067828735 -0.018195495 -0.012860244 -4.5298977
-0.038979642 -0.002514657 0.009389341 0.017127775 0.014682879 -4.8796806 0.013935449 0.029508527
0.009848353 0.009064022 -0.0049683973 -0.018587636 0.11905592 -0.02442532 0.00500484 0.8169021
-0.00048188228 -6.274783 -0.29203326 0.022217872 0.004265784 0.0351858 0.020406997 1.9573302
0.013458918 -0.010914981 -0.115480915 -0.013381757 -3.0575798 -0.02327147 0.15757577 0.04099975
0.0037822986 2.0139587 0.04565003 0.029873898 -0.3759985 0.1657094 -0.012516707 -0.5905252
-7.155766 -0.0028723793 -0.0090452805 0.38878956 -0.0285953 -0.003326249 -0.0073720855 -0.007976172
0.021293337 -0.23901331 0.012325893 -0.050621472 -0.00697266 -0.025641143 0.06940913 0.30139583
00000000: a244 8a3c b11e 013c 7523 51be 9f61 11bc
00000010: e0c6 69c0 67df 903e fd6b 04bc 0672 2bba
00000020: 6dab 03bf 28fc 31bd 5f97 5abc 265d b439
00000030: 7aba dfbc 1ef8 92bb d84d aebc 385d 143e
00000040: 0f1e afbc 6492 acc0 484e df3d 26f7 33be
00000050: 1da8 da3d af2a 40bb 30ac 1fbc d746 ae3b
00000060: 53f5 b73c 204e dabc 8749 adc0 09a6 d3bc
00000070: 0179 edbe d4ce 88bc d17b 85bd b8ee 00bd
00000080: a617 92bc 4ed4 41c0 cdd0 7f3d 27d3 3f3c
00000090: 2015 81be 0aeb 47bd 9c3a 963b 1a6f 1f3e
000000a0: 1284 343b ed07 a13b 7251 073c c400 a93a
000000b0: 056e 083c 35f0 803a 7d36 d43c 1d86 c4bb
000000c0: 9537 5d40 2acc 70bb e448 89bc 4bb0 bebb
000000d0: 8c83 7f3b 960d 7c3c 1f09 a7c0 b3fe af3c
000000e0: d24a bdbc 9bfb 68bb 28a0 933b 9037 69be
000000f0: 1df0 bc3d 97f6 6640 009c 3b40 287b 2c40
00000100: 1d8f bf3b 2afb 47bc 082e 3bbe 049c 473f
00000110: f0a2 c8bb afe7 f0ba f9f8 483c b8ac 75bc
00000120: 53a3 3dbe 9721 f5ba 9fb4 f9bc 24d6 2bc0
00000130: 918e d4bd 2c71 f83c df09 ccbb b88d 153c
00000140: 2867 3840 6804 d33b 6429 c8be e51c a93d
00000150: 5884 8bbc f1f1 db3e 751d babc 5052 713a
00000160: 6685 e33c e494 a43c 5ef4 a4bf c593 8941
00000170: 60e8 e9bc 14ae b8bc d481 4dbf d475 ccbb
00000180: efdc 903f de93 053c 072b 073e 4ed2 693d
00000190: ac12 88bd 6897 d33c eb1f 313c 24ee 52bc
000001a0: 806e 1ac1 916f 3cb9 d93c 84bc 4b59 1abb
000001b0: 5a85 e73c a393 26ba cc88 143e 0052 343e
000001c0: 952f ec3c 72c9 febc dfee e8b9 79f4 9fb9
000001d0: 74b6 51c1 0a67 9d3c 27ec 013d c3aa 9abd
000001e0: be47 2240 2e88 5b3d 97ca 50bc df49 a43c
000001f0: d07b 073c 4dd5 49bd 7766 a83d cd7d 963d
00000200: 54f3 52bb 5815 2e3c e8a6 543c de12 cdc0
00000210: d394 a9bc 74e3 e23e 3c7b 953b 14f4 103e
00000220: 0a23 c4bc c3b5 44c0 ec80 863e f4ed 62be
00000230: 12e4 e83d 5186 44bf 37a0 f1bb 8046 1f3f
00000240: c261 a2c0 12fe a4bc 275c b9bb e467 8e3b
00000250: 1823 b83c 64a6 01bd 5ef2 15bd 0fd3 8ebe
00000260: d09d d83f 44ec a0bb ddfb 04be 1bb2 063c
00000270: 6b5b 25bd 0756 023d 192e 3840 1bfe 12bd
00000280: 3934 1d3c 1639 443e 02ce b23a c366 563c
00000290: 4091 aabb 805f 4cbb 4976 45c0 857d 82be
000002a0: 3acb 6d40 94d2 cc3c 1b23 20c0 936a 0bbe
000002b0: dd22 d2bb d7d1 20be 3b0a d13a eb5b f33a
000002c0: ca49 023e 9331 c7bb 65bb 793d 61cb 4dc0
000002d0: ef03 2f3c 21ec d33c 178b fe3c cae9 4bbd
000002e0: 8aba e53b 8214 1c3c 5a84 b9bf 1d5a 46bf
000002f0: ae6a 2fbe 2660 a5bb e70b 93bd 0d02 adbc
00000300: 23ff 333b 9a8c cc38 7924 ed3e 8301 a43c
00000310: de42 debb b80e 95bc c6b3 52bc ecf4 90c0
00000320: 1ea9 1fbd f2cc 24bb c0d5 193c 8c4f 8c3c
00000330: 7590 703c 5826 9cc0 8251 643c debb f13c
00000340: fd5a 213c 4481 143c f0cd a2bb 1945 98bc
00000350: 97d3 f33d 9c17 c8bc a4ff a33b 7f20 513f
00000360: 25a5 fcb9 06cb c8c0 6285 95be 4102 b63c
00000370: fdc7 8b3b fc1e 103d 932c a73c cc89 fa3f
00000380: cb82 5c3c c0d4 32bc 4281 ecbd 283f 5bbc
00000390: 63af 43c0 cfa3 bebc 8b5b 213e 5bef 273d
000003a0: 71e0 773b b3e4 0040 87fb 3a3d 1bba f43c
000003b0: e082 c0be baaf 293e e012 4dbc a92c 17bf
000003c0: 09fc e4c0 873e 3cbb a832 14bc 6d0f c73e
000003d0: b140 eabc 33fd 59bb 8991 f1bb 7dae 02bc
000003e0: 5d6f ae3c e8bf 74be 8bf2 493c 7658 4fbd
000003f0: e97a e4bb 600d d2bc 6026 8e3d 8e50 9a3e

layer_3.bias f4 [2]
-0.20401436 8.405522
00000000: 24e9 50be 057d 0641
