pytorch_models/2M.1/TD3_MetaDrive-100envs-v0_0_actor.pth (torch, 582111 bytes, 6 tensors)

layer_1.weight f4 [400, 59]
0	0x3ac21e9b	0.0014810147
1	0x3e211256	0.15729651
2	0x3d96624a	0.07342966
3	0xbe14c484	-0.1452809
4	0xbe0afdc6	-0.1357337
5	0xbdcff920	-0.10154939
6	0x3db5ba20	0.08873391
7	0xbc325b95	-0.010886093
8	0x3daf5e05	0.08562855
9	0x3d040105	0.032227535
10	0x3da10893	0.078629635
11	0xbd2a48d0	-0.041573346
12	0xbd443828	-0.047905117
13	0xbe17dc0c	-0.14830035
14	0xbd94e4e3	-0.07270219
15	0xbd328dec	-0.04359238
16	0xbe272af2	-0.16324976
17	0x3c247a59	0.010038936
18	0xbdb40376	-0.087897226
19	0xbdc9ae85	-0.0984774
20	0xbd08b903	-0.033379566
21	0xbe093187	-0.133978
22	0xbc6cbad5	-0.014448841
23	0x3dd12335	0.10211793
24	0x3db9a8c6	0.09065394
25	0xbd03f080	-0.03221178
26	0x3dbcfac3	0.092275165
27	0xbd949d7a	-0.07256599
28	0xbd35499c	-0.044259652
29	0x3d3e967e	0.04653024
30	0xbaf35bf8	-0.0018566838
31	0x3cb4cd18	0.022070453
32	0x3d9f9dac	0.077937454
33	0x3c0790ea	0.008274296
34	0xbd6c4762	-0.057685263
35	0x3b3eb02d	0.0029096708
36	0xbdc83966	-0.09776573
37	0x3d2b143d	0.041767348
38	0x3da2901c	0.07937643
39	0x3ccceb5d	0.025014574
40	0xbdbf1e29	-0.093319245
41	0xbdae08f7	-0.08497804
42	0x3d3764df	0.044773933
43	0xbdcf9023	-0.10134914
44	0x3c604583	0.013688448
45	0x3d5037c7	0.050834443
46	0x3c9dcc2d	0.019262398
47	0xbd9aab53	-0.07552209
48	0x3d4033a2	0.04692424
49	0x3a79d343	0.00095300766
50	0xbe0d5467	-0.13801728
51	0x3da0ce75	0.078518786
52	0x3dd80e3c	0.1054959
53	0xbda0a292	-0.07843508
54	0x3c8b0ce2	0.016973916
55	0x3cfae992	0.030628953
56	0xbdb119f0	-0.08647525
57	0xbe295054	-0.16534549
58	0xbdf62097	-0.12017935
59	0xbb01a2e3	-0.0019780926
60	0xbd8a1484	-0.06742194
61	0x3d81c9ed	0.063373424
62	0xbdb778e5	-0.08958606
63	0xbd18ec1c	-0.037334546
64	0xbd0825e5	-0.033239264
65	0x3d5cb75d	0.053885806
66	0xbdd9b4c0	-0.106301785
67	0x3d03358b	0.032033484
68	0x3d6b70be	0.057480566
69	0xbe275a91	-0.16343142
70	0x3e01d8ff	0.12680434
71	0xbd3827b7	-0.04495975
72	0xbe062e74	-0.13103658
73	0x3d36fa34	0.044672206
74	0xbdddba81	-0.108265884
75	0xbceb43fc	-0.02871894
76	0xbd6f12fa	-0.058367707
77	0xbe2d16b7	-0.16903196
78	0xbe2270b5	-0.15863307
79	0x3d3ec046	0.046570085
80	0x3d981d7d	0.074274994
81	0x3d9a111c	0.075227946
82	0x3c93ac35	0.01802645
83	0xbd98f4a8	-0.074685395
84	0xbdd9ee9b	-0.106412135
85	0x3b80d778	0.003931936
86	0xbdee4ada	-0.116353706
87	0x3da0a133	0.07843246
88	0x3c872ad2	0.01649991
89	0x3cfb41d4	0.030671038
90	0x3c1a1531	0.0094044665
91	0x3da66735	0.08125154
92	0xbe21f257	-0.15815102
93	0x3d928ad4	0.071553856
94	0xbe158588	-0.1460172
95	0xbd84890a	-0.064714506
96	0x3da8aa13	0.08235564
97	0x3d558d6c	0.052136824
98	0xbcd12bc1	-0.025533559
99	0xbd94dce1	-0.07268692
100	0xbe2ba051	-0.16760375
101	0xbd907f01	-0.07055474
102	0xbde3625c	-0.11102745
103	0xbd8572d7	-0.065160446
104	0xbd984e8a	-0.07436855
105	0x3d90383f	0.07041978
106	0x3d97cc4a	0.07412012
107	0xbe1dbdd7	-0.1540445
108	0x3b27012b	0.0025482874
109	0xbcdece58	-0.027198002
110	0xbd26e629	-0.04074684
111	0x3d9fda07	0.07805257
112	0x3d6233c0	0.055225134
113	0xbdc42f21	-0.095793016
114	0xbdedda71	-0.1161393
115	0xbd17f60d	-0.037099887
116	0x3d9baf24	0.07601765
117	0x3db11ddf	0.086482756
118	0xbd3a54b9	-0.045490954
119	0x3daa278a	0.08308323
120	0x38ea6848	0.000111774134
121	0xbda0349e	-0.07822536
122	0xbd2baf68	-0.041915327
123	0xbe012af3	-0.1261404
124	0xbdfbc797	-0.12293928
125	0xbdc144a8	-0.09436923
126	0xbddb8b78	-0.10719961
127	0xbe05d23c	-0.1306848
128	0xbcc209a0	-0.02368623
129	0xbe63b081	-0.222353
130	0xbdf91014	-0.1216127
131	0xbe138519	-0.14406241
132	0xbc29a4ea	-0.01035426
133	0x3d42defd	0.04757594
134	0xbe0ce44c	-0.13758963
135	0xbd40e816	-0.047096334
136	0xbcd636e9	-0.02614923
137	0xbe416d97	-0.18889461
138	0xbdccd9b4	-0.10002461
139	0x3d981b30	0.074270606
140	0xbd450f90	-0.048110545
141	0xbc89b9f7	-0.016812308
142	0xbd7506c2	-0.059820898
143	0x3cdf17ba	0.027232993
144	0x3c8ac04a	0.016937394
145	0x3c768da2	0.015048416
146	0xbde13f4c	-0.10998401
147	0x3d8ace48	0.06777626
148	0x3dd11362	0.10208775
149	0x3d8b92e8	0.068151295
150	0x3dbfb568	0.09360772
151	0xbd8398bd	-0.06425617
152	0xbcbefdaa	-0.023314316
153	0xbcc8c128	-0.024506167
154	0x3d48a2f9	0.048983548
155	0xbda2838d	-0.079352476
156	0xbd86af02	-0.06576349
157	0xbafd7d3e	-0.0019339693
158	0xbd592cf0	-0.05302137
159	0xbe073247	-0.13202773
160	0x3d489fb6	0.048980437
161	0x3df26e2a	0.118374184
162	0xbd08609f	-0.03329527
163	0xbe0e1c2c	-0.13877934
164	0x3d0b755f	0.03404748
165	0x3dcc5a90	0.09978211
166	0xbda9c35a	-0.082892135
167	0xbd170bf3	-0.03687663
168	0x3dd9caf1	0.10634411
169	0x3cc2fbc8	0.0238017
170	0x3d59faec	0.053217813
171	0x3d933fec	0.071899265
172	0xbbe93155	-0.0071164765
173	0x3d4af629	0.049551163
174	0x3ca0b1f3	0.019616103
175	0xbe4cccf6	-0.20000061
176	0xbd7181c6	-0.058961652
177	0xbcee0d25	-0.029059002
178	0x3c4f84da	0.012665952
179	0xbdbf57f2	-0.09342946
180	0xbd30313b	-0.0430157
181	0x3da40f96	0.08010785
182	0x3da524a9	0.08063633
183	0xbcebec18	-0.028799102
184	0x3dae350a	0.0850621
185	0xbda562d6	-0.08075492
186	0xbd3d12f5	-0.046160657
187	0xbdd0a1bb	-0.10187098
188	0x3d810675	0.0630006
189	0xbdab8f4f	-0.08376943
190	0x3dbe34b5	0.09287397
191	0x3d2e8968	0.04261151
192	0xbde05722	-0.10954119
193	0x3d2fa77f	0.042884346
194	0x3df6f3fe	0.120582566
195	0x3bcca920	0.006245747
196	0xbc9bf449	-0.019037383
197	0xbd94a595	-0.07258145
198	0xbde6e3ee	-0.11273943
199	0xbd0abc91	-0.033871237
200	0xbe056a3b	-0.13028805
201	0xbd8ea829	-0.06965668
202	0x3d64c4e5	0.055851836
203	0xbdddc611	-0.10828794
204	0x3d897767	0.06712227
205	0xbd8a0578	-0.06739324
206	0xbcf6950a	-0.030100364
207	0x3dbbadab	0.09163984
208	0xbc911e04	-0.017714508
209	0x3c829a4d	0.015942717
210	0x3cbb7699	0.0228837
211	0xbd203cb5	-0.039120395
212	0x3d500f85	0.05079605
213	0xbdb1007d	-0.08642671
214	0x3c239980	0.009985328
215	0xbd6dd9d5	-0.05806907
216	0xbcab7db9	-0.020933973
217	0x3d2fb0fa	0.042893387
218	0x3db2c880	0.087296486
219	0xbe066561	-0.1312461
220	0xbdb9b6bc	-0.09068057
221	0xbdaa5095	-0.08316151
222	0xbcfa2123	-0.030533379
223	0xbdb59ec8	-0.08868176
224	0x3dba16ca	0.09086378
225	0x3d8cf146	0.06881957
226	0xbc245ef1	-0.010032401
227	0xbd3aa4fa	-0.04556749
228	0x3ddcb55e	0.107767805
229	0xbd29ae15	-0.041425783
230	0xbcc14fed	-0.023597682
231	0xbde2d405	-0.11075596
232	0xbd89f64b	-0.0673643
233	0x3d920d5a	0.07131453
234	0x3dd2dd69	0.10296137
235	0xbe0ca16c	-0.13733453
236	0x38145d58	3.5372883e-05
237	0x3c22a1b1	0.009926246
238	0x3dd81f9b	0.10552903
239	0x3d528b84	0.051402584
240	0x3d840deb	0.06447967
241	0x3bea8518	0.0071569793
242	0xbdd11fb9	-0.10211129
243	0x3dbbf68c	0.091778845
244	0xbdf44abf	-0.11928319
245	0x3ddcbda3	0.10778358
246	0xbd1965c4	-0.037450567
247	0xbda03e4d	-0.07824383
248	0xbd844968	-0.06459314
249	0xbdc3371c	-0.09531996
250	0xbcc21281	-0.023690464
251	0xbdb18e5f	-0.08669733
252	0x3d58a98e	0.052896075
253	0x3c59c9e9	0.013292768
254	0xbde7bd69	-0.11315424
255	0xbb952f66	-0.0045527695

layer_1.bias f4 [400]
0	0xbe11924d	-0.14215966
1	0xbdb41f5c	-0.08795044
2	0x3d8847fc	0.06654355
3	0x3cfc7ba9	0.030820685
4	0x3d5b5cf4	0.053555444
5	0xbcfe4780	-0.031039953
6	0x3f335da0	0.70064735
7	0xbcd0e6f5	-0.025500754
8	0x3d9a12fc	0.07523152
9	0x3d9b769b	0.075909816
10	0xbd99371e	-0.07481216
11	0x3caa1bc1	0.020765187
12	0xbd1a0e2f	-0.037611183
13	0xbd618ac8	-0.055063993
14	0xbd444040	-0.047912836
15	0xbd0726b7	-0.032995906
16	0xbdec7e4c	-0.11547527
17	0x3d19c32f	0.037539657
18	0x3d2cde8d	0.04220443
19	0xbd362a3b	-0.044473868
20	0xbd0eaff3	-0.034835767
21	0x3d6fd43f	0.058552023
22	0x3c97f104	0.018547542
23	0xbdd4802b	-0.103760086
24	0x3d66c46c	0.056339666
25	0x3cc2e0e4	0.023788877
26	0x3dc61126	0.096712396
27	0x3c012de9	0.007884481
28	0x3d479060	0.04872167
29	0xbe14b106	-0.14520654
30	0xbd87a0c2	-0.06622459
31	0xbddab3c1	-0.106788166
32	0xbdf0a415	-0.11750046
33	0xbd29f3ca	-0.04149226
34	0xbc4d9dcf	-0.0125498315
35	0xbdbe4fc4	-0.09292558
36	0xbe03272d	-0.12807913
37	0xbd250c1a	-0.040294744
38	0xbcee18b7	-0.02906452
39	0xbbffde02	-0.007808448
40	0xbde0ff1c	-0.10986158
41	0xbd4369fc	-0.047708496
42	0xbe074f4f	-0.13213848
43	0xbd164a49	-0.036691938
44	0xbdd80549	-0.10547883
45	0xbae2140d	-0.0017248407
46	0xbe0dd094	-0.13849097
47	0x3b72ac84	0.0037029097
48	0x3c55f6c5	0.013059323
49	0x3a47d077	0.0007622311
50	0xbdd19eaa	-0.10235341
51	0x3d98d5e6	0.07462673
52	0xbcc10683	-0.023562675
53	0xbd093332	-0.03349609
54	0xbb76eb3b	-0.003767683
55	0x3c990323	0.018678254
56	0xbde10186	-0.10986619
57	0x3d00a232	0.03140468
58	0x3dd1acb7	0.10238021
59	0xbb0e29b1	-0.002169233
60	0x3dabb829	0.08384735
61	0xbdaf4771	-0.08558548
62	0xbd67af00	-0.056563377
63	0xbe273a10	-0.16330743
64	0xbd26d496	-0.04073008
65	0x3d77253c	0.060338244
66	0xbd02071d	-0.031745065
67	0x3d7d1e1e	0.0617963
68	0x3dac3326	0.08408193
69	0xbe2294ea	-0.15877119
70	0xbd245ed0	-0.040129483
71	0x3c09a99e	0.008402256
72	0xbbe554d6	-0.0069986386
73	0xbd36c888	-0.044624835
74	0xbce5a07a	-0.028030623
75	0x3da4e086	0.08050637
76	0xbd7cfa20	-0.061761975
77	0x3d88fbc9	0.06688649
78	0xbc43e271	-0.011955843
79	0xbc6d47bf	-0.014482438
80	0xbe21ab29	-0.15787949
81	0xbdfce99d	-0.12349246
82	0xbcc7a4bb	-0.024370542
83	0x3d834fe8	0.06411725
84	0xbd2e5ad0	-0.042567074
85	0x3d235588	0.03987649
86	0x3cb3a2d8	0.021928236
87	0xbb075895	-0.0020652164
88	0xbe3639f7	-0.1779555
89	0xbdaebb76	-0.08531849
90	0xbe2a5c38	-0.16636741
91	0xbdaf1582	-0.08549024
92	0xbd98ff68	-0.0747059
93	0xbd051f26	-0.03250041
94	0xbe0712a3	-0.13190703
95	0x3bd94bf4	0.006631369
96	0xbda9a71b	-0.08283826
97	0xbddff66c	-0.10935673
98	0xbdb3bf07	-0.0877667
99	0x3d90b9e4	0.07066706
100	0x3d899d5a	0.067194656
101	0xbcac1811	-0.02100757
102	0xbd9b9ffc	-0.07598874
103	0xbd430880	-0.047615528
104	0xbde834fd	-0.11338232
105	0xbd70aa6c	-0.058756277
106	0xbce13036	-0.02748881
107	0x3d108642	0.03528429
108	0xbeb6405a	-0.3559597
109	0xbc58419d	-0.013199237
110	0xbdb18e19	-0.08669681
111	0x389c3800	7.4490905e-05
112	0xbd75e6d8	-0.060034603
113	0xbdc7fd95	-0.09765164
114	0x391ac800	0.0001476109
115	0x3d7293ed	0.059223104
116	0x3d0f5150	0.034989655
117	0x3dd8035f	0.10547518
118	0xbdd8e652	-0.10590805
119	0xbd91f9f6	-0.071277544
120	0x3e156855	0.14590581
121	0x3ddf11a2	0.10892035
122	0x3de2e8dd	0.110795714
123	0x3da2a62a	0.079418495
124	0x3d84174b	0.06449755
125	0xbdc54d09	-0.09633834
126	0xbd6116e6	-0.05495348
127	0x3d8a50c1	0.06753684
128	0x3da2f0ee	0.0795611
129	0xbe16da73	-0.1473177
130	0xbd96aa24	-0.073566705
131	0xbdeef1fb	-0.11667248
132	0xbdd46577	-0.103709154
133	0xbd24ad54	-0.04020436
134	0xbe0d2e0a	-0.13787094
135	0xbe012aa1	-0.12613918
136	0xbddff99d	-0.10936282
137	0xbdf7353c	-0.120707005
138	0x3ca7afbf	0.020469544
139	0xbd13c314	-0.036074713
140	0xbdbae009	-0.091247626
141	0x3d6e1f21	0.058135156
142	0xbe00b49e	-0.125689
143	0xbd8c1fef	-0.06842028
144	0xbe0a16d5	-0.13485272
145	0x3da9e289	0.08295161
146	0xbca893e7	-0.020578338
147	0xbdeec4e9	-0.116586514
148	0xbd34b9c4	-0.044122472
149	0xbe1a986a	-0.15097204
150	0xbcaccd03	-0.021093851
151	0xbd892393	-0.06696238
152	0xbbc893ad	-0.00612112
153	0xbbb5b23a	-0.005544928
154	0xbcd22620	-0.025652945
155	0xb9835bd5	-0.00025054687
156	0x3d2219ce	0.03957539
157	0x3ad49980	0.0016220063
158	0xbdb62aa9	-0.088948555
159	0x3c4b4cd7	0.012408457
160	0x3db68bf3	0.08913412
161	0xbc8630df	-0.016380725
162	0xbdeefd02	-0.11669351
163	0x3b06cff4	0.0020570727
164	0xbc7f3f84	-0.015579108
165	0x3d3c9be4	0.046047106
166	0x3d8fda52	0.07024063
167	0x3df74906	0.12074475
168	0xbe0f87f2	-0.14016703
169	0xbdca2584	-0.09870437
170	0x3cdede68	0.027205661
171	0x3c7ada58	0.015310846
172	0x3ca60d43	0.020269996
173	0xbde17f09	-0.11010558
174	0xbd98d23e	-0.074619755
175	0xbe036475	-0.1283129
176	0x3b795b49	0.0038048795
177	0x3d63fd7b	0.05566166
178	0xbc3f21d9	-0.011665785
179	0x3c1dee40	0.009639323
180	0xbbb29de2	-0.00545095
181	0xbe054137	-0.13013159
182	0x3d8f87ef	0.07008349
183	0x3bea8eb3	0.0071581244
184	0xbe2e85bf	-0.17043208
185	0xbc32cf58	-0.010913692
186	0xbd07602a	-0.033050694
187	0x3d894aae	0.06703697
188	0x3d56c014	0.052429274
189	0xbe32c598	-0.17458189
190	0xbe040314	-0.12891799
191	0xbe182914	-0.1485942
192	0x3d573b55	0.052546818
193	0x3d30a23f	0.04312348
194	0xbd99cdde	-0.07509969
195	0x3c9460e6	0.018112611
196	0xbd808982	-0.062762275
197	0xbd7d3260	-0.06181562
198	0xbd55430a	-0.052065887
199	0xbd8e9065	-0.06961135
200	0xbd7ad86e	-0.06124156
201	0x3d9a83a6	0.07544641
202	0xbe0dab1b	-0.13834803
203	0xbe008055	-0.12548955
204	0xbd50e8c2	-0.051003225
205	0xbcfd4d81	-0.030920746
206	0xbe07f83b	-0.13278286
207	0x3d4aea04	0.04953958
208	0xbd78ca65	-0.060739893
209	0xbe01e8fd	-0.12686534
210	0x3d72c9a1	0.05927432
211	0xbdbf98ed	-0.0935534
212	0xbb9a7195	-0.004713247
213	0xbdc8c486	-0.09803109
214	0xbd88688b	-0.06660565
215	0x3f60e072	0.87842476
216	0x3d944919	0.07240505
217	0xbe1e4a13	-0.15457945
218	0x3dbc24a1	0.09186674
219	0xbc521d38	-0.012824349
220	0xbd6dc0a7	-0.058045056
221	0xbe1c3b62	-0.15257028
222	0x3d7589d5	0.0599459
223	0xbd8aa503	-0.06769755
224	0xbd015273	-0.03157277
225	0x3dbc3270	0.09189308
226	0xbb36d7ad	-0.002789955
227	0xbd704c85	-0.058666725
228	0x3dad1528	0.08451301
229	0x3d90e46b	0.07074817
230	0x3c0f83c6	0.008759445
231	0x3dd57f7c	0.10424706
232	0xbd1372e4	-0.03599824
233	0xbe05dc09	-0.13072218
234	0xbd291fe2	-0.04129017
235	0xbd4c46ec	-0.049872324
236	0xbe1289c2	-0.14310363
237	0x3edbc2b1	0.42921975
238	0x3db0f759	0.08640928
239	0xbdadaf4a	-0.08480699
240	0x3d7daf5a	0.061934806
241	0x3ba0900a	0.0048999833
242	0xbe0753ed	-0.13215609
243	0xbdcffc5f	-0.10155558
244	0x3cbc6147	0.022995604
245	0xbfb2b915	-1.3962733
246	0xbdbbe39f	-0.09174275
247	0xbe093b4f	-0.1340153
248	0x3da45652	0.08024277
249	0x3c2cd351	0.010548429
250	0xbca3b1f2	-0.019982312
251	0xbdd7562c	-0.10514483
252	0x3d5ede2a	0.05441109
253	0xbbb22d5e	-0.005437537
254	0x3d06aaf4	0.032877877
255	0xbdb67d90	-0.08910668

layer_2.weight f4 [300, 400]
0	0x3c8d5a73	0.017255044
1	0xbbba64fd	-0.0056883083
2	0xbd276784	-0.040870205
3	0xbd6e3c55	-0.058163006
4	0xb9cf6553	-0.0003955761
5	0xbd73e144	-0.059541002
6	0xbdbfef9d	-0.093718745
7	0x3cabbaea	0.020963151
8	0x3d05d762	0.03267611
9	0xbd4e2f4b	-0.05033807
10	0x3d093fd7	0.033508148
11	0xbcb31c69	-0.021864133
12	0x3c526f84	0.01284397
13	0x3caac7de	0.020847257
14	0xbceb7f8c	-0.028747343
15	0x3c82eb1c	0.01598125
16	0x3cafb1e1	0.021447124
17	0x3c8fdf7e	0.017562624
18	0x3be305ae	0.0069281673
19	0xbd3f2b60	-0.046672225
20	0x3cff80f9	0.031189429
21	0x3c4d15a9	0.012517371
22	0xbc02da20	-0.007986575
23	0x3c533dff	0.012893199
24	0xbccb9330	-0.024850458
25	0x3d13889b	0.03601895
26	0xbc9e7b46	-0.01934589
27	0x3d1fd479	0.03902099
28	0xbcb8ec86	-0.02257372
29	0x3b8a3d48	0.004218731
30	0xbc2e5954	-0.010641415
31	0xbc58ae5f	-0.013225167
32	0xbd379a6a	-0.044824995
33	0xbbebe736	-0.0071991934
34	0x3c5ad831	0.013357208
35	0xbcfcc2b4	-0.03085456
36	0x3bf75637	0.0075481194
37	0x3d238226	0.03991904
38	0x3cd05fd5	0.025436321
39	0x3cea1c9c	0.028578095
40	0x3d24621f	0.040132638
41	0xbcf42099	-0.0298007
42	0xbcaca413	-0.02107433
43	0x3bb3a691	0.0054825027
44	0xbc61075f	-0.013734668
45	0xbd302460	-0.04300344
46	0x3c397fc7	0.011321968
47	0xbc529ed8	-0.012855254
48	0xbcccaa23	-0.024983471
49	0x3ca64b5c	0.020299606
50	0x3d10b3e3	0.035327803
51	0xbcabd791	-0.020976814
52	0x3ccb48d8	0.024815008
53	0xbda77c90	-0.08178055
54	0x3caa3dfc	0.02078151
55	0xbd1f7497	-0.038929548
56	0xbcaef778	-0.021358237
57	0xbd21e95a	-0.039529182
58	0xbdad85ce	-0.08472787
59	0x3cb72220	0.02235514
60	0x3d1d76e9	0.03844348
61	0xbc812e20	-0.015769064
62	0xbcfc3a79	-0.0307896
63	0xbcf6e54d	-0.030138636
64	0xbd0c126e	-0.034197263
65	0xbd618f20	-0.055068135
66	0xbd43cf20	-0.04780495
67	0xbd3f84b0	-0.0467574
68	0xbcba3066	-0.022728156
69	0xb880025a	-6.103954e-05
70	0xbd0efb74	-0.034907773
71	0xbd1f1eed	-0.038847852
72	0xbcf63e83	-0.030059105
73	0x3c1c9d88	0.009559043
74	0xbc9a97fe	-0.018871304
75	0xbceea4a4	-0.029131241
76	0x3d77eadf	0.060526725
77	0x3b9dc15e	0.004814311
78	0xbd838708	-0.064222395
79	0xbd27cfe1	-0.040969733
80	0xbd6d1a96	-0.057886682
81	0xbcb75e7b	-0.022383919
82	0x3cce43dd	0.025178844
83	0xbd6c9296	-0.057756983
84	0xbd8dfd54	-0.06933084
85	0x3c48afc8	0.012248941
86	0xbb1dc305	-0.002407254
87	0x3c6f9a56	0.014624199
88	0xbc0dc61b	-0.008653189
89	0xbc0400dd	-0.008056846
90	0xbc88a95b	-0.016682317
91	0xbd6c729e	-0.057726495
92	0xbd0676ad	-0.03282802
93	0xbcaa27c6	-0.020770919
94	0xbc19fe34	-0.009398986
95	0xbd3da1c2	-0.046296842
96	0x3d18ce65	0.03730621
97	0xbc8a118c	-0.01685407
98	0x3ce49612	0.02790359
99	0xbd52811c	-0.05139266
100	0x3cf6e9e3	0.030140823
101	0x3c8073d9	0.01568024
102	0xbd246adb	-0.040140968
103	0x3ce27ae8	0.027646497
104	0xbd378b80	-0.044810772
105	0x3d185c1f	0.03719723
106	0x3c556e88	0.013026841
107	0xbd23b401	-0.039966587
108	0x3c5eef38	0.013606839
109	0x3d1e628e	0.038668208
110	0x3cb020b3	0.021499967
111	0x3c431534	0.011906911
112	0xbb9c0fd6	-0.00476263
113	0x3d4692ad	0.048479725
114	0x3d419293	0.047258925
115	0xbc4f0f12	-0.01263787
116	0x3c303720	0.01075533
117	0x3d1d87f1	0.038459722
118	0x3d074660	0.0330261
119	0x3c19a3e8	0.009377457
120	0x3ba6143a	0.005068329
121	0xbb700320	-0.0036622956
122	0xbd209be6	-0.039211176
123	0x3d18a0e7	0.037262823
124	0xbb98fdb0	-0.004668914
125	0x39d39c6d	0.00040361602
126	0x385f8000	5.3286552e-05
127	0x3caf5f77	0.021407826
128	0x3bd5d6c8	0.006525848
129	0xbcb28d86	-0.021796
130	0x3cf7070e	0.030154731
131	0xbd531f80	-0.051543713
132	0x3bac9c80	0.0052676797
133	0xbd4e9a46	-0.050440095
134	0xbc2e4446	-0.010636395
135	0x3d4c4a09	0.049875293
136	0x3d178b95	0.03699835
137	0x3d256176	0.04037615
138	0x3d06a2ab	0.032869976
139	0xbcb9c6dd	-0.022677833
140	0xbc8da06c	-0.01728841
141	0xbc966b25	-0.018361637
142	0xbd526e4f	-0.05137473
143	0xbd35c569	-0.044377718
144	0x3b8fc172	0.004387074
145	0x3d03ebf9	0.032207463
146	0x3c204bdb	0.00978371
147	0x3c8ebbbe	0.017423507
148	0xbd011ca4	-0.031521454
149	0x3af37c21	0.0018576422
150	0x3d1e0c91	0.038586203
151	0x3ca9da42	0.020733956
152	0x3c555713	0.013021248
153	0xbca64ed0	-0.020301253
154	0x3d1db303	0.038500797
155	0xbd07b563	-0.03313197
156	0xbc0e4e5d	-0.008685675
157	0x3d21de89	0.039518867
158	0x3cc9a70d	0.024615789
159	0x3c80e2f8	0.015733227
160	0xbc46ef65	-0.012142037
161	0xbd3e121c	-0.04640399
162	0xbd33ba57	-0.04387888
163	0x3cb2ddeb	0.021834334
164	0x3b5c0ba5	0.0033576277
165	0xbd559b0e	-0.052149825
166	0xbc4b07b7	-0.012391976
167	0x3c984d62	0.018591587
168	0x3cba067c	0.02270817
169	0x3cb9b207	0.022667898
170	0xbcc6695c	-0.024220161
171	0xbbeff651	-0.0073230644
172	0xbd3ba222	-0.04580892
173	0xbc9dc31d	-0.019258076
174	0xb9228b00	-0.00015501305
175	0xbd568007	-0.05236819
176	0xbce3eddd	-0.027823383
177	0xbc8bfaa6	-0.017087292
178	0x3c8ceaae	0.017201748
179	0x3c63051c	0.013856199
180	0xbc873df8	-0.016509041
181	0xbd58c004	-0.052917495
182	0x3cb30031	0.021850677
183	0xbd6f7cb9	-0.058468554
184	0xbd548296	-0.05188235
185	0x3c934e21	0.01798159
186	0x3c9bd57b	0.019022694
187	0x3d11272d	0.03543775
188	0xbcf2952d	-0.029612148
189	0xbcff593b	-0.031170478
190	0x3c2fe8d4	0.010736663
191	0xbb9fd3df	-0.004877552
192	0xbc0e2fc7	-0.008678383
193	0x3cd5ea0b	0.026112577
194	0x3aeeb360	0.0018211417
195	0xbccf1fa8	-0.02528365
196	0x3d484569	0.04889432
197	0xbd47312b	-0.048630875
198	0x3bad15b0	0.0052821264
199	0xbcf21e5d	-0.029555494
200	0x3c957c5a	0.018247772
201	0x3bc550eb	0.006021609
202	0x3c0f6e8e	0.008754386
203	0x3b882b4c	0.004155552
204	0xbd3747bf	-0.044746157
205	0xbc9b94b1	-0.0189918
206	0xbcb7417d	-0.022370094
207	0xbd375d10	-0.044766486
208	0x3b3d5843	0.002889172
209	0x3cf84616	0.030306857
210	0xbd5f8578	-0.054570645
211	0x3d4c4c1b	0.049877267
212	0xbc41fad7	-0.01183959
213	0xbd38a360	-0.04507768
214	0x3d171669	0.036886606
215	0xbd5c95b9	-0.053853724
216	0x3bba9728	0.0056942888
217	0xbc551098	-0.013004445
218	0xbb3dd23e	-0.0028964425
219	0xbd3b2710	-0.04569155
220	0xba21ec96	-0.00061769166
221	0xbcaa8d43	-0.020819312
222	0xbbfe1028	-0.007753391
223	0x3d10d00b	0.035354655
224	0xbcf4b454	-0.029871143
225	0xbc77bf40	-0.015121281
226	0x3c2562a0	0.010094315
227	0xbcdbd07a	-0.026832808
228	0xbc7f3466	-0.015576458
229	0x3cb45123	0.022011345
230	0x39b6f900	0.00034899265
231	0xbd28501d	-0.041092027
232	0x3cd88236	0.026429277
233	0xbca08de8	-0.019598916
234	0xbc39812f	-0.011322304
235	0xbd38a526	-0.045079373
236	0xbc1aafa4	-0.00944129
237	0x3c361a70	0.011114702
238	0xbc8533e6	-0.016260099
239	0xbd49d29a	-0.04927311
240	0xbce07643	-0.027400142
241	0xbd57e3df	-0.05270755
242	0xbc5ea601	-0.013589383
243	0xbd1bb76a	-0.038016714
244	0xbd0eb00d	-0.034835864
245	0xbdce53d6	-0.10074584
246	0x3cea2a42	0.028584603
247	0x3d203935	0.039117057
248	0xbcc56207	-0.024094595
249	0x3ca6222a	0.020279963
250	0xbb18d67b	-0.00233212
251	0x3cf0209c	0.029312424
252	0x3cd85776	0.026408892
253	0xbd02d230	-0.03193873
254	0x3be6fe53	0.007049361
255	0xbd6d3e8e	-0.057920985

layer_2.bias f4 [300]
0	0xbda0c05b	-0.07849189
1	0x3ed18b6b	0.4092668
2	0xbd81820b	-0.06323632
3	0xbe3d8eec	-0.18511552
4	0xbf1f3ab5	-0.62198955
5	0xbcb61746	-0.022227895
6	0xbdb8e493	-0.09027972
7	0xbd7f3708	-0.06230834
8	0xbd03e869	-0.032204065
9	0xbd9404ff	-0.072275154
10	0xbd822b6f	-0.063559406
11	0xbf192d61	-0.5983487
12	0xc0089d22	-2.1345906
13	0xbf44cbda	-0.7687355
14	0x3ef1bc11	0.47213796
15	0xbf1831d6	-0.59451044
16	0xbd9e6da3	-0.07735755
17	0xbdc00fa5	-0.09377984
18	0xbda863b6	-0.08222143
19	0xbd3f1fb3	-0.04666109
20	0xbd8c6f94	-0.06857219
21	0xbd6f3d30	-0.058407962
22	0xbdd54d86	-0.10415177
23	0xbf9c1e6f	-1.2196788
24	0x3eba2185	0.36353698
25	0xbe22793f	-0.15866564
26	0xbd89e011	-0.067321904
27	0xbf678da8	-0.90450525
28	0xbd9cae6b	-0.07650455
29	0xbee7d50e	-0.45279735
30	0x3e8fa216	0.2805335
31	0xbd9607b3	-0.07325687
32	0xbd1f142e	-0.038837604
33	0xbdbb6fc5	-0.09152178
34	0xbe2db28e	-0.16962644
35	0xbd9541db	-0.072879516
36	0xbfb3919a	-1.4028809
37	0x3f407aeb	0.7518756
38	0xbd803eb3	-0.06261959
39	0xbed7bd68	-0.42136693
40	0xbd89ea42	-0.06734134
41	0xbf520b56	-0.8204855
42	0xbf687d50	-0.9081621
43	0xbebdcf5c	-0.37072265
44	0xbd28f0a8	-0.041245133
45	0xc0598398	-3.3986568
46	0xbdd00c35	-0.10158578
47	0xbd9da02c	-0.07696566
48	0xbdb0979c	-0.08622667
49	0xc0280075	-2.625028
50	0x3f0e055e	0.5547694
51	0xc0317a0d	-2.7730744
52	0xbde75131	-0.11294783
53	0xbd7b3646	-0.061331056
54	0xc011b04f	-2.276386
55	0xbd843e43	-0.06457188
56	0xbe1bf601	-0.15230562
57	0xbda4e39a	-0.08051224
58	0xc0526cf5	-3.2879002
59	0xbe386e2b	-0.18010776
60	0x3cfb2cd3	0.030661022
61	0xbd538ade	-0.051646106
62	0x3e08efa9	0.13372673
63	0xbfd3990a	-1.6531079
64	0xbdb3f2bc	-0.08786532
65	0xbdd8c2d7	-0.10584038
66	0xbddd61d8	-0.10809678
67	0xbfaadfa5	-1.3349501
68	0x3f180148	0.59376955
69	0xbf7d9c0f	-0.9906625
70	0xbd3e8457	-0.046512928
71	0xbf8141ab	-1.0098165
72	0x3f9f67d5	1.2453562
73	0xc08c6b4d	-4.3880982
74	0xbdeaf314	-0.11472145
75	0xbf93afd8	-1.1538038
76	0xbe74d2b4	-0.23908502
77	0xbddbee5d	-0.107388236
78	0xbd9a5532	-0.07535781
79	0xbd5cf7e7	-0.053947356
80	0xbcfc0f65	-0.03076906
81	0xbd845175	-0.06460849
82	0xbd960c3d	-0.07326553
83	0xbec4b52f	-0.38419482
84	0xc033f5e9	-2.8118842
85	0xbd7ccc4a	-0.061718263
86	0xbde2687a	-0.110550836
87	0xbea8653d	-0.3288974
88	0xbd446b48	-0.047953874
89	0xbf165f59	-0.5873924
90	0xbd5fcdd5	-0.054639656
91	0xbd974c07	-0.07387548
92	0xbe391117	-0.18072926
93	0xbe4956bb	-0.19661991
94	0xbe09d855	-0.1346143
95	0xbd8de518	-0.06928462
96	0xbdacba29	-0.08433945
97	0xbdcd0684	-0.100110084
98	0xbefdd051	-0.49572995
99	0xbddd09f0	-0.10792911
100	0xbda3e68b	-0.08002957
101	0xbdc7ed4b	-0.09762057
102	0xbdae3671	-0.085064776
103	0xbfd586b0	-1.6681728
104	0xc0095a6d	-2.1461442
105	0xbcc099e3	-0.023510879
106	0xbde35ae0	-0.111013174
107	0xbdd20a0b	-0.10255822
108	0xbddad4dd	-0.10685132
109	0xbddb2581	-0.10700513
110	0xbd65cbb1	-0.05610246
111	0xbd526e84	-0.051374927
112	0xbe2c9c97	-0.1685661
113	0x3dee3f95	0.11633221
114	0xbdb12aa9	-0.08650715
115	0xbd8614ea	-0.06546958
116	0xbfcc3fef	-1.5957011
117	0x3e5405d2	0.20705345
118	0xbd93f875	-0.07225124
119	0xbe27b5ce	-0.16377947
120	0xbeb7110f	-0.35755202
121	0xbd833d70	-0.06408203
122	0x3e886565	0.26639858
123	0xbdbd7bc6	-0.092521235
124	0xbd5a8f98	-0.053359598
125	0xbee92ca0	-0.4554186
126	0xbf25633b	-0.6460454
127	0xbf06e127	-0.52687305
128	0xbe5053b8	-0.20344436
129	0xbf93cc29	-1.154668
130	0xbdb2f4e3	-0.08738115
131	0xbe347a61	-0.17624809
132	0xbe28705e	-0.16449115
133	0xbd85eba5	-0.06539086
134	0xbf9b7f22	-1.2148173
135	0xbdb8917d	-0.09012125
136	0xbdefc676	-0.11707775
137	0xbd93d6d3	-0.07218709
138	0xbdd4813d	-0.10376213
139	0xbf8b9960	-1.0906181
140	0x3ef925eb	0.48661742
141	0xbd822858	-0.06355351
142	0xbdc24fd9	-0.09487886
143	0xbf1b8f93	-0.6076595
144	0xbeed4e9d	-0.4634904
145	0x3dc29e2d	0.09502826
146	0xbf4bb3ba	-0.79571116
147	0xbd9bd568	-0.076090634
148	0xc0a3223b	-5.0979285
149	0xbe295cb2	-0.16539267
150	0xc02d85e4	-2.711297
151	0xbdb3344f	-0.087502114
152	0xbddab4be	-0.10679005
153	0xbe1638b2	-0.14670065
154	0x3f420631	0.757907
155	0xbd8b5b41	-0.06804515
156	0xbdcd9ad2	-0.10039295
157	0xbddb26ff	-0.10700797
158	0xbe46f10a	-0.19427887
159	0xbfd2cbd7	-1.6468457
160	0x3ec25293	0.37953624
161	0x3eb30a30	0.3496871
162	0x3debbb74	0.11510363
163	0xbe3d6886	-0.18496904
164	0x3e7ed99b	0.24887697
165	0x3f272553	0.6529133
166	0xbd058fb0	-0.032607734
167	0xbd39f438	-0.04539892
168	0xbdd871a9	-0.10568554
169	0xbddbd123	-0.10733249
170	0xbdb42427	-0.08795958
171	0xbddb36f7	-0.10703843
172	0x3d4f0ea3	0.050551068
173	0xbef179cf	-0.47163245
174	0xc025a8ce	-2.588428
175	0xbde38752	-0.11109795
176	0xbd623b87	-0.05523255
177	0x3eecf471	0.46280244
178	0xbd47d14f	-0.048783597
179	0xbd6dd14f	-0.05806094
180	0xbd76aa39	-0.06022093
181	0xc00c69e6	-2.1939635
182	0xbd05ca87	-0.03266385
183	0xbd498c9a	-0.049206354
184	0xbd928574	-0.071543604
185	0xbd6d77a4	-0.057975426
186	0x3eee68ea	0.46564418
187	0xbe09cff4	-0.13458234
188	0xbd8697e3	-0.06571939
189	0xbdfce822	-0.12348963
190	0xbf1fc39b	-0.62407845
191	0xbf0d160e	-0.5511178
192	0x3f26c680	0.65146637
193	0xbe1a79e9	-0.15085568
194	0xbd9cff5d	-0.07665894
195	0xbe0df0b8	-0.13861358
196	0xc0a1653c	-5.0436077
197	0xbdca8483	-0.09888556
198	0xbd536d6d	-0.05161803
199	0xbe2f2600	-0.1710434
200	0xbe951c29	-0.29123047
201	0xbfbd4c87	-1.4788979
202	0xbdbeaf3d	-0.09310768
203	0xbe1fb696	-0.15596995
204	0xbdecf63f	-0.11570405
205	0xc0607e9c	-3.5077276
206	0x3e2e016c	0.1699273
207	0xbe017ba1	-0.12644817
208	0xbda4fde0	-0.08056235
209	0x3da4884a	0.080338076
210	0xbde59bb2	-0.11211337
211	0xbdbbcede	-0.09170316
212	0xbdfdaf32	-0.123869315
213	0xbf8e070f	-1.1095904
214	0xbd96171a	-0.07328625
215	0x3e566c5c	0.20939773
216	0xbdeaf700	-0.11472893
217	0xbe0e8b39	-0.13920297
218	0xbd6861b8	-0.056733817
219	0xbf88114d	-1.063028
220	0xbc23d665	-0.009999846
221	0xbd47fa80	-0.04882288
222	0x3e63fc02	0.22264102
223	0x3eeb3366	0.4593765
224	0xbd3fce05	-0.046827335
225	0xbd54e630	-0.051977336
226	0xbe24228e	-0.16028807
227	0xbd847c8f	-0.0646907
228	0xbda27fd1	-0.07934535
229	0xbe92dd4c	-0.2868446
230	0xbdaed475	-0.08536617
231	0xbd8edd41	-0.069757946
232	0xbfbe40c8	-1.486352
233	0xbfd9ab88	-1.7005472
234	0x3e88f459	0.26748922
235	0xbd85f486	-0.0654078
236	0xbd85179e	-0.06498645
237	0xbe6e3932	-0.23264006
238	0xbd7b82f9	-0.061404202
239	0xbeed6a82	-0.46370322
240	0xbe225286	-0.15851793
241	0xbdba3bfa	-0.09093471
242	0xbd86099d	-0.06544802
243	0xbe4dec3d	-0.20109649
244	0xbfcd0f13	-1.6020225
245	0xbd803499	-0.06260032
246	0xbea55781	-0.32293323
247	0xbc42092a	-0.011843005
248	0x3e27dbda	0.1639246
249	0xbdc12123	-0.094301485
250	0xbd9d96e5	-0.076947965
251	0xc019c0f0	-2.402401
252	0xbde2a515	-0.11066643
253	0xbd67b036	-0.056564532
254	0xbf3646d0	-0.712018
255	0xbfe8e709	-1.8195506

layer_3.weight f4 [2, 300]
0	0xbc5bfeca	-0.013427446
1	0x3eefe4f4	0.46854365
2	0xbcb429dc	-0.021992616
3	0xbdc13392	-0.094336644
4	0xbdcc9c1d	-0.09990714
5	0xbc88c94b	-0.016697546
6	0xbd586bb3	-0.052837085
7	0xbcfbef01	-0.030753614
8	0x3c0bbb94	0.008528609
9	0xbc238706	-0.009980923
10	0x3b29c2f2	0.002590355
11	0xc04b204c	-3.1738462
12	0x3f3b2e9b	0.7311799
13	0x3fe90d7f	1.8207244
14	0xbfc09b5f	-1.5047415
15	0x3d8969cc	0.06709632
16	0xbb1af896	-0.0023646704
17	0x3cacbdac	0.021086536
18	0x3c19aba4	0.009379301
19	0x3b1ed7ba	0.002423747
20	0x3da5ecdf	0.0810182
21	0x3f8c0700	1.0939636
22	0x3bfff13f	0.007810741
23	0x3d24ad7e	0.040204518
24	0x409c0519	4.8756223
25	0x3cab05f4	0.020876862
26	0xbbb69da2	-0.0055729905
27	0x3f80a4d0	1.0050297
28	0x3d5748db	0.052559715
29	0xc10b3004	-8.699223
30	0xc01c25ec	-2.4398146
31	0xbd4e32ce	-0.05034142
32	0x3b81a4d4	0.0039564166
33	0x3b940fd6	0.0045184894
34	0xbcf4db64	-0.02988977
35	0xbc9f5afa	-0.01945256
36	0xbde693b2	-0.112586394
37	0x4039aa48	2.9010181
38	0x3b8aca4f	0.004235543
39	0xc0549e2d	-3.3221543
40	0xbcab761c	-0.020930342
41	0xc00b504e	-2.1767764
42	0xbd510689	-0.051031623
43	0xc04bb3ba	-3.1828446
44	0x3d41e70e	0.04733949
45	0x3dfd6972	0.12373628
46	0xbd86daac	-0.06584677
47	0x3dc74b25	0.097311296
48	0xbcb9495d	-0.02261799
49	0x40383350	2.8781319
50	0xbc4c0f65	-0.012454842
51	0x3f19eab7	0.6012377
52	0xbcdc6bd1	-0.02690688
53	0xbcc1eb8b	-0.023671886
54	0x3d94eb97	0.07271498
55	0x3ef2c9b1	0.47419503
56	0xbdcf69c3	-0.10127594
57	0x3d80fc22	0.062980905
58	0xbe26a2be	-0.16273019
59	0xbd078fde	-0.033096187
60	0xbad21843	-0.0016028959
61	0xbbc54cc9	-0.0060211164
62	0xbe01a30a	-0.1265985
63	0x3e514316	0.20435748
64	0x3c109d5e	0.008826582
65	0xbcda7ea2	-0.026671711
66	0x3bbcaa3b	0.0057575977
67	0xc0df2b3f	-6.974029
68	0x3f295f18	0.66160727
69	0x4001f572	2.0306058
70	0xbb618125	-0.0034409252
71	0xc108cdf6	-8.550283
72	0xbcef6960	-0.029225051
73	0xbf0399b4	-0.5140641
74	0x3c9b4246	0.0189525
75	0xbe0da505	-0.13832481
76	0xbd493a92	-0.049128123
77	0x3e94e36e	0.29079765
78	0x3d616c1c	0.05503474
79	0xbdac114e	-0.08401738
80	0x3b5ca21b	0.0033665958
81	0x3d0a8467	0.033817675
82	0x3cf46356	0.029832523
83	0x40189abd	2.3844445
84	0xbfef3b58	-1.8689985
85	0x3d477ff3	0.048706006
86	0x3cad2ac2	0.021138553
87	0x3fba21cc	1.4541564
88	0x3c8d3cc6	0.017240893
89	0x410b299d	8.6976595
90	0xbc55e1b2	-0.013054298
91	0xbccd1b24	-0.025037356
92	0xbf255539	-0.64583164
93	0xbc67f723	-0.014158043
94	0x3e104fd8	0.14092958
95	0xbc8ea568	-0.017412856
96	0xbcdfd53a	-0.027323354
97	0xbcef2f6b	-0.029197415
98	0xbf90bd0b	-1.1307691
99	0xbc9eb420	-0.019373
100	0x3b884be0	0.0041594356
101	0x3ebc61b0	0.3679328
102	0x3d37106c	0.044693395
103	0xc09b08a8	-4.8448067
104	0xbfa7f6f8	-1.3122244
105	0xbd314fbb	-0.043288928
106	0xbc1e001c	-0.009643581
107	0x3c441d49	0.011969873
108	0x3a7e423c	0.0009699201
109	0xbcb288bb	-0.021793714
110	0x3d0f39d3	0.034967255
111	0xbadce7ab	-0.001685371
112	0xbf0b3a9d	-0.5438631
113	0xbe0cbadc	-0.13743156
114	0xbc3eb155	-0.011638959
115	0x3ebff937	0.37494823
116	0xbfe4fe93	-1.789019
117	0xbc3579fe	-0.0110764485
118	0xba79702d	-0.00095153117
119	0x3dc1e0d5	0.094667114
120	0xbed2f8d7	-0.41205475
121	0x3c0cd69c	0.008596089
122	0x3d223c76	0.03960844
123	0x3badbcb9	0.0053020385
124	0x3eb904a0	0.3613634
125	0xbe077919	-0.13229789
126	0x3fcb77a4	1.5895886
127	0xbffea871	-1.9895154
128	0x3edd48f3	0.43219718
129	0xc1087fbf	-8.531188
130	0xbc9d1690	-0.019175798
131	0xbc67f9ef	-0.01415871
132	0x3d231bda	0.039821483
133	0x3c94ceef	0.01816508
134	0x402a8df7	2.6649148
135	0x3c93a6e3	0.018023914
136	0xbad446d5	-0.0016195426
137	0xbca7975f	-0.020457922
138	0xbbcf57a3	-0.006327586
139	0x4146fbc2	12.436464
140	0xc0370236	-2.85951
141	0xbd057235	-0.03257962
142	0x3e9f27ee	0.3108515
143	0x40988610	4.766365
144	0x3e2a1f58	0.16613519
145	0xc0766823	-3.850106
146	0xbf8a2990	-1.0793934
147	0x3e97a406	0.29617327
148	0xbce89496	-0.028391164
149	0x3ef89980	0.4855461
150	0xc0cc975d	-6.393477
151	0xbcd0f0ee	-0.02550551
152	0xbccb2f26	-0.024802756
153	0x3e753389	0.2394544
154	0xc0b31575	-5.5963693
155	0xbc5d85f2	-0.013520705
156	0xbca27d80	-0.019835234
157	0x3cce2778	0.025165305
158	0x3bf8e9d8	0.0075962357
159	0xbf54fc30	-0.8319731
160	0xbf42b9bf	-0.76064676
161	0xbf372d67	-0.71553653
162	0x4010c057	2.2617395
163	0x3dba91bb	0.09109827
164	0x3f908e63	1.1293453
165	0x40e438b2	7.131921
166	0xbccba79d	-0.024860198
167	0xbd142e3c	-0.036176905
168	0xbcf4baf3	-0.0298743
169	0x3d7354a4	0.05940689
170	0xbcaca2ee	-0.021073785
171	0xbbb7f3a1	-0.0056137596
172	0xbea4e21b	-0.32203755
173	0xbf852c87	-1.0404214
174	0xbe5d81c7	-0.21631537
175	0x3d3d7597	0.04625472
176	0x3e6987f3	0.22805767
177	0x3fd0114c	1.6255279
178	0x3cad821d	0.021180207
179	0xbcd225e0	-0.025652826
180	0x3cb14eb5	0.021643976
181	0x4077bd14	3.8709154
182	0xbcafc3dd	-0.0214557
183	0x3cee9830	0.029125303
184	0xbd025ffc	-0.03182982
185	0x3e9985ea	0.2998498
186	0xc087c92d	-4.2433076
187	0x3d7276b4	0.059195235
188	0x3daa3aa3	0.08311965
189	0x3cb32513	0.021868264
190	0x4044f518	3.0774593
191	0xc067f4c4	-3.6243143
192	0xbf360080	-0.7109451
193	0xbd367b9d	-0.04455148
194	0xbcb735da	-0.022364546
195	0x3d109a30	0.035303295
196	0x3c4d2940	0.012522042
197	0x3da115e6	0.07865505
198	0xbce1a0b4	-0.02754245
199	0x3e067b51	0.13132979
200	0x3f673faa	0.9033152
201	0xbddb9d25	-0.10723332
202	0x3d4b779f	0.049674626
203	0x3e0b041f	0.13575791
204	0x3d1efbf2	0.038814493
205	0xbe47b814	-0.19503814
206	0xc08dd934	-4.432764
207	0xbd991689	-0.07475001
208	0xbd077208	-0.033067733
209	0xbd8ec526	-0.06971197
210	0x3c10eaa8	0.008845009
211	0xbd061a76	-0.03274008
212	0x3d2016e0	0.039084315
213	0xbe825e57	-0.254626
214	0x3a0375ea	0.0005014824
215	0xbead65be	-0.33866686
216	0x3d21a98d	0.039468337
217	0x3cf15a28	0.029461935
218	0xbc3657d9	-0.011129343
219	0xbdf74766	-0.12074165
220	0x4086a772	4.20794
221	0xbce52d03	-0.027975565
222	0xbfc134c2	-1.5094225
223	0xc008c057	-2.1367395
224	0xbc9c7968	-0.01910086
225	0x3e96f04b	0.29480204
226	0x3de6363c	0.11240813
227	0xbc923c22	-0.01785094
228	0xbb442edd	-0.002993516
229	0x3dd552aa	0.104161575
230	0x3ba1e351	0.0049404283
231	0xbd4b3764	-0.04961337
232	0xbfe4cdb4	-1.7875276
233	0xbfb945df	-1.4474448
234	0xbf0b46f3	-0.54405135
235	0x3af98c3c	0.0019038985
236	0xbcbb1d7f	-0.022841213
237	0x3fa6876d	1.3010079
238	0x3eb94759	0.36187246
239	0x40057ce0	2.0857468
240	0xbc715cad	-0.014731568
241	0x4071f7e1	3.7807543
242	0xbd875a44	-0.06609014
243	0x3deca1b3	0.11554279
244	0x3dc3e59d	0.0956528
245	0xbbf508d4	-0.007477859
246	0xbdd339b3	-0.1031374
247	0xbb975aed	-0.0046189935
248	0x3ffe7c8b	1.9881757
249	0x3bb7aaa4	0.0056050587
250	0x3b58a7bf	0.003305897
251	0xbd5df9b6	-0.05419322
252	0xbc3ecc3e	-0.011645375
253	0x39666864	0.00021973398
254	0xbf47f21a	-0.7810379
255	0x40169b0a	2.3532128

layer_3.bias f4 [2]
0	0xbd3451ac	-0.0440232
1	0x409d61bc	4.9181805
